srcnn_model.pth (torch, 83120 bytes, 6 tensors)

conv1.weight f4 [64, 3, 9, 9]
00000000: 721a a43c 2a90 633d 5f3f 17bd e2f3 963c
00000010: 21a8 aabc e45a 533d 23a7 3cbd 6362 1ebd
00000020: 3c0e fb3b 864d a93c 0d95 85bd bae0 183d
00000030: f6b3 6f3c a10b 34bc 372a 22bc c76a 6639
00000040: e3e7 0c3d bddf d43c 8f9a f3bb 153c 73bc
00000050: 8d75 d0bc 19d4 20bd b263 7c3d 9438 d0bb
00000060: 67e2 7f3b 1131 333d a330 b53c e292 79bc
00000070: df16 a03d 49c0 8e3d 89fc debd b2cb 60bd
00000080: 2ca8 b7bc 854f a63c 9131 4d3c 091f 06bd
00000090: d506 e9bc 023c 98bc 79dd 323d 79c0 14bd
000000a0: 30ec 8fbd 00a3 c8bd 3bb8 88bd 7342 a2bd
000000b0: 6778 503d 7e1a 313d 583b 613a 0f0e 77bd
000000c0: 5b76 cf3c ab83 feba ffaf 6ebc 292a ba3d
000000d0: be57 8f3d addf 5e3d 482a 2bbc b27a ccbc
000000e0: f28c 15bd e6d7 8bbd 110d 85bd 710a 63bc
000000f0: 42e8 acbd a888 e8bc 7426 49bc 7cbe e63c
00000100: 5ee4 6e3d da2e fdbc 4db8 bb3d c318 913d
00000110: 70bd b33c 7aa8 103d 74a9 44bd 23e1 88bc
00000120: 3e42 553c 2b14 c739 fc1c 1f3d 27bc 7b3d
00000130: 2d02 eabc 5532 583d d3b9 8f3c 10b4 b33b
00000140: fb40 e63c 86ed 5bbd ccb7 c4bc 897a 413c
00000150: bb3e 77bd 8207 0c3d 5407 533c 6773 30bb
00000160: 41d0 38bd 93d2 88bd eb7a afbc b3ba dfbc
00000170: 6467 103d 6262 ed3c b02b 90bd a7cd 4e3d
00000180: 4b11 3bbd ea45 4a3d 2ff9 693b dcdc 0dbc
00000190: 0355 5c3d 212c 513a 94e6 8ebd b98c 85bc
000001a0: 12d3 13bd 73bb 16bc 0085 c43b 76f8 9bbc
000001b0: 1a6e 21bd 3e9d 2a3d 93fc c6ba 66c8 12be
000001c0: 37fd 06be 67bc 16be 0bf6 b4bd 7a48 c7bc
000001d0: 68e5 80bd 6741 003d 6d10 193d 2b2d 80bd
000001e0: 6a5e 15be 3b6c e9bd 7194 b4bd 1ea7 77bd
000001f0: eb0d 0fbd f03c 413d 3538 813c 463d edbc
00000200: 6ad5 873d eefb 303d f5f9 a53b ef31 cf3d
00000210: 162f d73d c844 1c3d 7f0e 9bbc a458 88bc
00000220: 7083 adbd 99c8 09bd db4e 23bd 7781 40bd
00000230: fbe1 893c 5dbb 61bb 1397 043b 1e03 84bb
00000240: 1df2 28bc 5139 b13c 2426 ab3d 01b7 ba3d
00000250: 0ed3 be3c f528 c73d 1439 2a3d 989a 42bc
00000260: 7986 973c ec89 813c d419 85bd 8cdb dcbc
00000270: f118 06bb 1596 fc3c 253b 2b3d b2ca 02bd
00000280: 18b8 36bc 3509 0b3d 9ca7 4a3d b6bf c4bb
00000290: 15a2 7f3d 909b 6bbd c3e1 d03c c0e7 fdbc
000002a0: 2534 803c 69ab 14bd 64b7 083c b5d7 49bd
000002b0: 5872 e5bc 9a8e 1d3d 3f6c 94bd 3110 c33c
000002c0: 2c97 51bd 9fdf d8ba 05e3 0f3c 5414 bbbc
000002d0: 5a0a 863b 7155 ba3b 9b4b cf3c 17aa e73c
000002e0: e23a d6bc 023b 3a3b 06d9 863d 0d7d c13d
000002f0: 6bd6 eb3c 1e0e 313c 537d bb3c c417 f7bc
00000300: 9128 28bd 5dd7 12bd a6c2 50bd 823d 303d
00000310: 8473 7ebc ab17 433d c8f3 463d 1caa c83c
00000320: 2a7f 46bd 4605 d0bd 4c69 07be 3b9e 6bbd
00000330: a472 acbd d3e6 6cbd 4ecc 61bd adf8 13bd
00000340: 0883 633c df49 0d3d 7684 2f3d 4ef4 9f3d
00000350: dea7 a83d fe72 913d 22fa 043d f046 a93d
00000360: a2f0 8bbd 6134 2dbd 30fc 6ebc 00c0 173c
00000370: 3e5c 47bd 1eb3 f4bc c9ac 8fbd 2be0 d6bc
00000380: fd41 16bd add9 39bd 6ae7 633d fab4 50bc
00000390: 134a 273d e33f 473d 5c4a 3d3d ee34 8a3d
000003a0: a3b1 1b3d b1e4 72ba 21ac c9bc 171f dabb
000003b0: 0c02 643d 754e 25bd c9e5 543c 63f5 f03c
000003c0: 8be3 54bd 9be4 3ebd efff f7bc b7bc 243d
000003d0: c8c5 453c 264d a73c 7c19 933c 22bc c63d
000003e0: 5803 c43d 232e 0dbc 250b af3c be78 073d
000003f0: 5df7 0fbc 17ef 9dba 6510 61bb 50cd 92bd
0.020032141 0.055557407 -0.03692567 0.01842684 -0.020832123 0.051600352 -0.04605783 -0.038668048
0.007661609 0.020666849 -0.0652257 0.03732369 0.014630308 -0.010989101 -0.00989776 0.00021974287
0.034400832 0.025985593 -0.0074341963 -0.014845868 -0.025446678 -0.039264772 0.061618514 -0.006354401
0.0039044858 0.043747965 0.022117918 -0.0152327735 0.07816862 0.06970269 -0.10888011 -0.05488176
-0.022419058 0.02030159 0.012524025 -0.03274444 -0.02844564 -0.018583301 0.043668244 -0.03631637
-0.07027471 -0.09796715 -0.06675764 -0.079228304 0.050896075 0.043238156 0.0008591912 -0.06031614
0.025324991 -0.0019417902 -0.014568328 0.09090073 0.06999157 0.054412533 -0.010447092 -0.02496085
-0.03651137 -0.06828289 -0.06496633 -0.01385747 -0.08442737 -0.028385475 -0.012277234 0.028167002
0.058323257 -0.03090613 0.09166012 0.07084801 0.021940917 0.03531692 -0.048013166 -0.016708916
0.013016282 0.00037971264 0.038846 0.061458733 -0.02856549 0.052782375 0.017544663 0.0054841116
0.028107157 -0.053693317 -0.024013422 0.011809 -0.06036256 0.034186848 0.012880165 -0.0026924254
-0.04512048 -0.06680789 -0.021420917 -0.027310705 0.03525485 0.028977577 -0.07039583 0.050489094
-0.04567079 0.04938308 0.0035701504 -0.008658614 0.05379201 0.0007979293 -0.06977573 -0.016302453
-0.036089964 -0.009199965 0.0059973 -0.019039374 -0.03941164 0.041653864 -0.0015181474 -0.14334258
-0.13182531 -0.14720307 -0.088359915 -0.024326552 -0.06293756 0.031312373 0.03736918 -0.06258615
-0.14586797 -0.113975964 -0.088173755 -0.06046211 -0.034925383 0.047177255 0.015773872 -0.028959882
0.066325024 0.04320901 0.0050651976 0.10116946 0.10507028 0.038151532 -0.01892781 -0.01664383
-0.08472335 -0.03363857 -0.039870124 -0.046998467 0.016831389 -0.0034443953 0.0020231649 -0.004028692
-0.010311631 0.021633776 0.08356884 0.091169365 0.023293998 0.09724609 0.04155834 -0.011877678
0.018496739 0.015812837 -0.06499067 -0.026960157 -0.0020461644 0.030833283 0.04180445 -0.031931587
-0.01115229 0.033944327 0.04947625 -0.006004299 0.062410433 -0.057521403 0.025498277 -0.030994296
0.015649864 -0.036296282 0.008344505 -0.04927798 -0.028008625 0.038466074 -0.07247209 0.023811432
-0.05116956 -0.0016546136 0.008782153 -0.022836842 0.0040905895 0.005686455 0.025304606 0.028279347
-0.026151124 0.002841652 0.06584363 0.0944768 0.028788766 0.010806588 0.022886908 -0.0301627
-0.041054312 -0.035849918 -0.05096688 0.04302741 -0.015530471 0.047629993 0.04857233 0.024495177
-0.048461117 -0.10157256 -0.13223761 -0.057523947 -0.084203035 -0.05783732 -0.05512648 -0.036125828
0.013886221 0.034494277 0.042850934 0.07810269 0.08235143 0.07102011 0.032465108 0.082654834
-0.068330064 -0.04228628 -0.014586493 0.009262085 -0.048671953 -0.029870566 -0.07015378 -0.026229938
-0.036684025 -0.045373607 0.055640616 -0.012738461 0.040842127 0.04864491 0.046213493 0.06748377
0.038011204 -0.0009265645 -0.02461821 -0.006656538 0.055666015 -0.040358026 0.012994238 0.029413885
-0.051974814 -0.046604734 -0.030273406 0.040219035 0.0120710805 0.02042253 0.017956488 0.09703852
0.0957095 -0.008616957 0.021367619 0.033074133 -0.008787003 -0.0012049404 -0.0034342047 -0.071680665

conv1.bias f4 [64]
00000000: 5338 d33b 707c c63c 2d18 ff3d 48e2 9bbc
00000010: c169 6e3d c2cc 393e 6326 2e3d 306e 103d
00000020: 28f8 a4bb 9b13 223d 410f 993b 8467 c43d
00000030: c82c e13c cb6a 3c3d aab2 3abd 7b34 a83d
00000040: 1d45 88bb 1694 04bc 9554 a4bd 09ac dc3c
00000050: 9935 693c 171e 98bc 2af8 153d f010 663e
00000060: fdb9 77bd 5b42 40bd 997c b9bd a96f 3f3d
00000070: 4951 a23c e477 f33d e987 413e f731 d1bc
00000080: 045f d63c f9b7 653d 1897 07be 86e4 823d
00000090: 5e1d 053e 2cae 253e 3a93 5f3d 9aa7 613d
000000a0: 2fa3 063e 0c9c 8e3c 7a6d 5439 5e04 c43c
000000b0: d69e 833d 96f5 39bd dcf5 233e 3880 c73d
000000c0: a5aa 58bd a603 8ebc 1c9b a03d 0b46 8fbd
000000d0: 19d3 d1bb eeec 35bc 168e 29ba 853a fa3c
000000e0: 61b0 d1bb b198 9a3c 98d3 073d 74a6 a83c
000000f0: f925 2cbd 2784 723d a4eb 93bd a658 2abd
0.0064459234 0.024229258 0.12455783 -0.019028798 0.058206324 0.18144515 0.042517077 0.035261333
-0.0050344653 0.03956948 0.004671008 0.095900565 0.027487174 0.046000283 -0.045580544 0.08213135
-0.0041586296 -0.008091947 -0.08023945 0.026937502 0.01423397 -0.018569035 0.03661362 0.22467399
-0.060480107 -0.04693828 -0.09056968 0.046737347 0.01981415 0.11888102 0.18899502 -0.02553652
0.026168354 0.056083653 -0.13241231 0.06391244 0.12999484 0.16179723 0.054583766 0.055091478
0.13148187 0.017408393 0.00020258679 0.023927864 0.0642678 -0.045400225 0.16011757 0.09741253
-0.052897114 -0.017335724 0.07842085 -0.069957815 -0.0064033386 -0.011103852 -0.0006468011 0.030545482
-0.0063992 0.018871637 0.033160776 0.020587184 -0.0420284 0.05920806 -0.07222679 -0.041588448

conv2.weight f4 [32, 64, 1, 1]
00000000: 40e1 953d 1b03 78be 7be5 913c 35b2 2ebd
00000010: 818d 05be b8c0 acbd 6455 533c e000 01bd
00000020: 69ce 493d 746a 533c cc3c 87bd 3f72 eabd
00000030: 1d52 a8bd d2f3 4fbd 5959 ed3d 610c eebd
00000040: 373c e1bd 4ae0 c2bd 7c04 213b 5b4d 59bd
00000050: f4de 563d 43cd 6fbc 076a ef3c 2cff 063d
00000060: 7fde a43d 9df0 c7bd 6bbc b33d bbcf 1bbe
00000070: de04 673d 4ef1 1ebe 7cae 353d d547 72bd
00000080: b08c e2bd 3d3a a53d f2ad a8bd a974 02bd
00000090: dfd4 01be 8b44 e73c 4476 93bb ac9b 97bc
000000a0: 08f5 9fbd a12a 1739 7a8a 923d ea5b f5bc
000000b0: f3c5 39bd de33 fbbd c489 24be 5fed 5ebe
000000c0: d537 9d3d 9a71 bf3d 9f28 8ebc cceb d03d
000000d0: a099 873d c8a7 ccbc 61a0 d43d 5d05 dfbd
000000e0: 8e3c 93bd 4c08 a93d 078c 323d eedb 1bbe
000000f0: 0f3b 0cbd 858c cbbd e721 b1bd d00a 0ebe
00000100: c82b 393e 7380 9f3d 10b0 3dbd 7521 ee3c
00000110: fb6e 8b3d f1a2 8abe 06ab 133d 3584 55bd
00000120: e9d9 853e 94cd 213e 7458 0f3f 6164 92bd
00000130: cb97 35bb 25b3 093d 3b86 b53d b01c b4bd
00000140: 32db 753d 444a e83e 700e f0bc 0b8a 313e
00000150: d02b 18bd 1af1 c93d 118c a83d b693 323e
00000160: 54be 0dbd 5928 c3bd 6575 693d 40d7 ed3d
00000170: fd71 3c3d 8625 ae3e d392 3bbe d96f 6cbd
00000180: 139b ae3d cd79 7f3d cf8b d73d dbbe f8bd
00000190: f55f 3a3d c2b2 813e 78e8 c03c e611 87bc
000001a0: d4cd ef3c be43 99bd 1c6e 0d3e 284e 373d
000001b0: 3baf 6e3d cc41 2ebd c22d 74be 576c 2a3d
000001c0: 7477 01bd 167d e7bc 16c2 a7bd c570 90bd
000001d0: dfd6 2f3d 4717 993d 527c 083e fe81 e4bd
000001e0: 7965 86bc 8e0a 5a3d 0864 d5bd 47dc 2cbd
000001f0: 7b70 76bd 45fe 74bd 4c18 8cbd c407 013e
00000200: f52b 9b3d fdc2 74bd 9874 53bc 553f 69bd
00000210: aa21 dbbb c0c0 4bbe 55b3 803d b569 a4bd
00000220: 7679 013c 3f1c d63d 563b 4f3c 8e5f af3d
00000230: abd1 8d3d 0b49 73bb 70c4 e73c 256a b63d
00000240: 0620 963d fdab 54bd ac05 27bc 0964 823d
00000250: 6afd debc cb00 22bd 05af 273d 9768 793e
00000260: 8dad 453b b8d3 56bd 4fac c13c 527e 0abd
00000270: 2a15 7d3e 2cbd b53d 9f2c 74be 9550 0e3d
00000280: 507e ad3c cf88 933e 3842 b7bd 2f1e 7dbd
00000290: 1ea8 0c3c e794 313e 240b d43d 9f54 00bd
000002a0: e4ae 69bd 2ec2 c33d 77be 1d3d 498b cb3a
000002b0: 23e0 063c 371b b33d 91a0 09be b5ee e53c
000002c0: 0fb1 babd 36ab cd3d 3f8c aabb ec23 413d
000002d0: cb07 77bc 62ee 2e3e 9d9a 7f3d 7d91 a8bd
000002e0: 6d48 d1bd 6fce 0dbd dbcc a53c f163 703d
000002f0: 0356 3e3c 99d3 413d 726a 6abd 5247 c7bc
00000300: f9d3 a73d 5505 483d bf9e ae3c 36cd 3cbd
00000310: cf92 ee3d f43f 33be acba 40be 83dc e43b
00000320: e17e 323e 593b 933d 6157 a83d d383 bbbd
00000330: 14bc 223d 42c9 b93b cec0 b2bd 8817 113e
00000340: 3464 0d3e 7e84 10be c7b0 ca3d 954a d33c
00000350: d61e d7bd 14f0 ef3d 5ee9 b53c 9ffd c83d
00000360: 94ac c1b9 eb17 7ebd 9069 743b c830 16bd
00000370: db49 16be 4991 bf3d 5e05 d3bd 5af1 95bc
00000380: 1fc7 a63d e830 0b3e 0062 393c 4876 aebd
00000390: caa0 513d f7e4 8ebd cf7b 3cbe 2c3b c03c
000003a0: d1e4 443d d3f8 54bd 1660 21bd 67b7 813d
000003b0: 5af5 c83d c05c 073d 6232 b7bd 9ea5 4cbe
000003c0: 77c7 813c cfe7 b4bd adea e33d e291 29bd
000003d0: 941a a4bd b2a3 73bc 137c ee3c f985 28bd
000003e0: 756e 3fbd 51be 103c 755f df3d 2ad2 1cbe
000003f0: 2a03 8b3d 9e1f aabd 9a8c 6a3d 176e 943d
0.07318354 -0.24219935 0.01780962 -0.04265042 -0.1304226 -0.08435196 0.012898777 -0.031494975
0.049269114 0.012903798 -0.06603393 -0.11447572 -0.08218787 -0.050769635 0.11589307 -0.11623455
-0.10997813 -0.09515436 0.0024569323 -0.053052288 0.05245872 -0.014636341 0.029225362 0.032958195
0.0805025 -0.0976269 0.08776172 -0.15215962 0.056401126 -0.15521738 0.044355854 -0.059150536
-0.1106199 0.08067749 -0.082363024 -0.031849537 -0.1267886 0.028230926 -0.0045001823 -0.018506847
-0.07810408 0.00014416363 0.071553186 -0.029951055 -0.045354795 -0.12265752 -0.16068178 -0.21770237
0.07676665 0.0934784 -0.017353354 0.10201225 0.066210985 -0.024982348 0.10382152 -0.10889695
-0.07189284 0.08253536 0.04359057 -0.15220615 -0.03423601 -0.09938911 -0.086490445 -0.13871312
0.18083107 0.077881716 -0.046310484 0.029068688 0.06808277 -0.2707744 0.036051773 -0.052128036
0.26142815 0.15801078 0.55994344 -0.07148052 -0.0027708884 0.03361811 0.08863493 -0.08794534
0.060023494 0.4536916 -0.02930376 0.17337815 -0.037151158 0.098604396 0.082298405 0.1743916
-0.03460534 -0.0952918 0.05699672 0.11613321 0.046007145 0.34013003 -0.18317728 -0.057723854
0.08525672 0.062372018 0.10524713 -0.12145778 0.045501668 0.25331694 0.02354835 -0.016488027
0.029272951 -0.07483624 0.13811535 0.04475227 0.05827258 -0.042543218 -0.2384558 0.041607227
-0.03160806 -0.028257888 -0.08191316 -0.07052759 0.042929526 0.07475143 0.13328674 -0.111576065
-0.016405808 0.053232722 -0.1041947 -0.04220226 -0.060165863 -0.059812803 -0.06840572 0.12600619
0.075767435 -0.059756268 -0.012906216 -0.056945164 -0.0066873627 -0.19897747 0.06284205 -0.080279745
0.007902494 0.10454606 0.012648424 0.085631475 0.069247566 -0.0037122394 0.02829191 0.08906964
0.07330327 -0.051921833 -0.010194223 0.063667364 -0.027220447 -0.039551537 0.040938396 0.24356304
0.0030163259 -0.052448004 0.023641733 -0.033811875 0.24715105 0.08873972 -0.23845147 0.034744818
0.021178395 0.28815314 -0.08948177 -0.061796363 0.008585004 0.17341958 0.103536874 -0.0313307
-0.057051554 0.09558521 0.03851172 0.0015529181 0.008232149 0.08745425 -0.13440157 0.028067926
-0.091158025 0.100424215 -0.005204707 0.0471534 -0.015077542 0.17083123 0.06240331 -0.08230875
-0.10218892 -0.0346207 0.020239284 0.05868906 0.0116171865 0.047320936 -0.05723042 -0.024326
0.081947275 0.04883321 0.02131593 -0.046094142 0.11649095 -0.17504865 -0.1882121 0.006984295
0.17431213 0.07189054 0.08219791 -0.09156003 0.039730147 0.0056697438 -0.08728181 0.14169133
0.13807756 -0.14113042 0.09896999 0.0257924 -0.10503928 0.11715713 0.022206005 0.098139994
-0.0003694041 -0.06203453 0.0037294365 -0.036667615 -0.14676611 0.09353883 -0.10303758 -0.018303562
0.08143448 0.13592875 0.011314869 -0.08518654 0.05117873 -0.06977265 -0.18406604 0.023465715
0.04806978 -0.05199511 -0.039398275 0.06333809 0.09812422 0.033047438 -0.08945157 -0.19985053
0.015842183 -0.088332765 0.11128745 -0.04139889 -0.08012882 -0.014870571 0.029111898 -0.04114339
-0.0467362 0.0088344375 0.10906879 -0.15314546 0.06787713 -0.08306812 0.057262994 0.072475605

conv2.bias f4 [32]
00000000: 6509 b73d 1f80 873d 0b98 fcbb 019d cc3d
00000010: f7c2 95bb 6596 20bd 7af3 e4bd 7600 6d3d
00000020: 51b2 ddbc df7d e3bc d30c c8bd 2843 b1bb
00000030: 3e56 6b3d ad58 e33b 5009 33bc 7396 cabc
00000040: 7de6 8ebd 8334 b5bd 388d 173d 4f4d b53d
00000050: 88ac 993d 176e 673d 0477 78ba 0817 f43c
00000060: 1200 183d 806b 2bbb b85e 1fbd eea9 c33d
00000070: 13a6 69bd 6c19 55bc 0fe8 debb 7e83 6c3d
0.08937339 0.06616234 -0.0077085546 0.099908836 -0.0045703608 -0.039205927 -0.11179252 0.057861768
-0.027062567 -0.027769981 -0.09768071 -0.005409617 0.057455294 0.006938061 -0.010927513 -0.024729943
-0.06977556 -0.088479064 0.03699991 0.08852636 0.07503611 0.056501474 -0.0009478184 0.029796138
0.037109442 -0.0026156604 -0.03890869 0.09553896 -0.057043146 -0.013006549 -0.006802566 0.05774259

conv3.weight f4 [3, 32, 5, 5]
00000000: 6a8f cebc 719f 1d3d 82f7 c9bc c8b3 6ebc
00000010: f595 343b 0057 60bc 044c 123d 5aec 923c
00000020: 71e4 813a fe61 0dbc 1173 173c 09cb 733a
00000030: b4b9 7a3b 43fc d7bb 44ee d5bc 583c 513b
00000040: 900a 3dbc 5be4 2b3c a044 9bba 3639 a63c
00000050: b998 b6bc 3636 e6bc 21fd d6bc 5146 083d
00000060: 362d 273a 83f5 f4bc 222e 4dbc 2bc9 83bb
00000070: e004 5dbd 46a2 b4bc df2e aabc be1f c53c
00000080: a723 4b3d 8690 d3bc 1744 6e3c 2b4b 4e3d
00000090: 6678 af3d f001 cc3d 6f31 ba3c 072f de3c
000000a0: 3d9d 97bc 251b 74bc ac3c f93c 9790 36bd
000000b0: 709b 3a3d 634d 7fbd 80d6 44bd 241c 02bb
000000c0: ad0b a03a 668a 133a 9769 debc d9df 8b3c
000000d0: 5154 e73c 7578 1b3d 54b4 53bc 2f0a 4fbb
000000e0: dbb6 c2b9 b200 893d f6aa bebb 491d 93bc
000000f0: 4bb4 33bc d188 9f3c 9f0d 333d f3a4 86bc
00000100: 406d 9b3c 7a17 8a3c df32 e23a cdbf e9bc
00000110: 4306 2fbd 7b79 62bc 210d ad3c cf25 e2bc
00000120: 65b8 8f3b 17c4 e83b 5e19 a73c b334 23bd
00000130: 32e0 71bc 1440 5ebc 793c 64bc a50f 163c
00000140: eb06 b5bc 85d6 963c effd 18bc 7fe5 95bc
00000150: 9d79 12bd 18b7 21bd 4c7c 8a3c 5722 af3d
00000160: d959 503d dfd4 c83b 40a7 9f3c f0bd 7dbb
00000170: 6652 413d a75b fcbc 71ce 72bc 7ead 473c
00000180: 6901 a1bb 2bc7 053c 338b 99bc 534d 1bbd
00000190: 5b65 30bc 51c5 8bbc b83a 15ba 7561 f9bc
000001a0: bd50 32bb e53a 02bd 691e 9abc 6179 f3ba
000001b0: 0951 a03a e637 bcbc bb2b fa3c f5b0 54bc
000001c0: e2ab 843d 3e3c 213d c239 6fbc 0245 9bbc
000001d0: c3a4 e0bc b412 c3bc 4ee3 0a3d ed6f 0cbd
000001e0: e38e 98ba d89f 5bbc 741f 47bc 44be 08bd
000001f0: 3bf0 913c 8091 d03b ee02 ac3c e238 cf3d
00000200: ab47 4a3d 053e b43c fce9 48bd 4a2f 9dbc
00000210: 0e87 0ebb 91f4 86bc b35d c8bc 3816 e3bc
00000220: 1632 0cbc ab8b 693d 0d30 96ba bd4c ae3c
00000230: 353c 03bc dec4 19bd 5614 28bb 0f13 5abd
00000240: be13 35bd 7d1f 923c be81 4dbc f8a6 27bc
00000250: ebb7 36bd 3f62 d2bc 2da6 26bc 2632 84bc
00000260: d650 633c 7076 5bbc 9538 c3bc 5f01 093c
00000270: 207f 133c 3d88 213b ebca 893c 6c6e ac3c
00000280: 9b7b 0e3d 49e9 dd3c a32d 923c cd55 e83c
00000290: 4411 213d 85ba 493c 965c d7bc f367 023d
000002a0: 1aff 3b3c 240a 9e3c 3114 823c 716f b1bc
000002b0: 3050 723b 2a16 09bd 18a4 29bc 020f aa3c
000002c0: 85dd 023d 9ca9 3f3d 28a7 803b adfe 3dbd
000002d0: 5418 debc decf 413d db01 6a3d b0a0 c73b
000002e0: e99d ebbc 5224 1f3d 764c 1b3d 2669 8a3d
000002f0: 4c54 023d 04b1 e63c 5654 1bbd d2a9 a3bc
00000300: 092d c9bc d86b 41bc 4768 23bd 6c1e bd3c
00000310: ba5c 49bc 5e34 2fbc a1d1 89bb 9101 10bd
00000320: 722d 21bd f99c c6bc 8841 863c 5fc1 bc3b
00000330: 525b bcbc 17db bd3c bb10 c5bc fba7 0cba
00000340: 8c64 47bd ab6b afbc 4ac7 333c 4a19 2a3d
00000350: 7fd3 4f3d 860d d63c 9359 143d 85d1 d93b
00000360: d9e7 6e3d d594 a03d 1c8c b7bb 0554 6ebc
00000370: 2a5e 34bc 5199 bebb 930b 823c ea45 663c
00000380: 40aa 213d d3fe 14bc 4e11 18bd 742c 143b
00000390: 1d5e efba 398c 39bd 2a97 6abd fadc 9a3c
000003a0: b91a 613d cbaf 2a3d f925 6cbd 6efd 06bd
000003b0: 620b 58bc 5fdf 863d 9bf2 c63c 7344 8ebd
000003c0: d9d2 163d a713 603d 2a34 4f3d a476 b33c
000003d0: ad62 48bc 860a a0bb f2b9 883c 5bdb 1ebc
000003e0: be49 36bd 3f28 3fbd c01c 0fbd ef41 98bc
000003f0: aa36 05bd ce68 2fbc 0d24 b23b 308b 0e3d
-0.02521487 0.038482133 -0.024654154 -0.01456923 0.0027555202 -0.013692617 0.035717025 0.017934967
0.000991 -0.00862932 0.009243743 0.0009299969 0.003825766 -0.0065913512 -0.02611459 0.0031926837
-0.011538163 0.010491456 -0.0011846013 0.020290952 -0.02228962 -0.028102022 -0.026243748 0.033270184
0.00063772814 -0.029902225 -0.012523206 -0.004021784 -0.053959727 -0.022050034 -0.020774303 0.024062987
0.049594548 -0.02582575 0.014542601 0.050364655 0.08567886 0.09961307 0.02272865 0.027122034
-0.018507594 -0.01489905 0.030424438 -0.044571485 0.045558393 -0.06232966 -0.048056126 -0.00198532
0.0012210511 0.0005628228 -0.027149959 0.017074512 0.028238447 0.037956674 -0.012921412 -0.0031591763
-0.000371388 0.06689586 -0.00581872 -0.0179583 -0.010968278 0.019474419 0.043714162 -0.016436076
0.018972993 0.016856898 0.0017257592 -0.02853384 -0.04273058 -0.0138229085 0.021124424 -0.02760592
0.004385995 0.007103454 0.020397838 -0.03984518 -0.014762925 -0.013565082 -0.013930433 0.009159003
-0.022098025 0.018412838 -0.009337886 -0.018297909 -0.03576051 -0.039481252 0.016904972 0.08551472
0.050866935 0.006128892 0.01948893 -0.0038717948 0.047197722 -0.030805422 -0.014819727 0.01218736
-0.004913498 0.008165161 -0.018743133 -0.03791554 -0.0107663525 -0.017061861 -0.00056926487 -0.030441979
-0.0027208768 -0.031794447 -0.018813329 -0.0018575602 0.0012231182 -0.022975873 0.03053843 -0.012981643
0.064780965 0.039364092 -0.014601173 -0.018953804 -0.027422315 -0.02381263 0.03390818 -0.03428643
-0.0011639263 -0.013404809 -0.012153495 -0.033384576 0.017814746 0.006365001 0.02099749 0.101182714
0.049384754 0.02200223 -0.04905127 -0.019187588 -0.002174798 -0.01647404 -0.024458742 -0.027720556
-0.008556863 0.057017963 -0.0011458412 0.021276826 -0.00800996 -0.037541263 -0.0025646887 -0.053240832
-0.04420828 0.01783728 -0.01254314 -0.01023268 -0.04460899 -0.025681613 -0.010171455 -0.016137194
0.013874253 -0.013394937 -0.023830691 0.008362143 0.009002477 0.0024647855 0.016820392 0.021048747
0.034785848 0.027088778 0.017844027 0.028361226 0.039323106 0.012312536 -0.026289266 0.031837415
0.011474395 0.019291945 0.015878769 -0.021659585 0.0036974065 -0.033468403 -0.010354064 0.02075911
0.03194954 0.04679261 0.0039261766 -0.046385456 -0.02711121 0.04731738 0.057130676 0.0060921535
-0.02876182 0.038852997 0.037914716 0.06758337 0.031818673 0.02816058 -0.037922226 -0.019978438
-0.024557607 -0.011805497 -0.03989437 0.023085795 -0.012290174 -0.010693638 -0.004205898 -0.035157744
-0.03934998 -0.024244772 0.01638867 0.0057603563 -0.022992764 0.02317576 -0.02405583 -0.0005365607
-0.048679873 -0.021413645 0.010972807 0.041528024 0.050738808 0.026129495 0.036218237 0.006647291
0.058326576 0.078408875 -0.005601419 -0.014546399 -0.011008779 -0.0058166166 0.01587466 0.014054755
0.039469004 -0.009093958 -0.037125878 0.0022609504 -0.0018262301 -0.045299742 -0.057273068 0.018904198
0.054957125 0.041671555 -0.0576534 -0.032956533 -0.013186308 0.065855734 0.024285605 -0.069466494
0.036822174 0.054706242 0.050586857 0.021907158 -0.012230557 -0.004884067 0.016690228 -0.009695853
-0.04450392 -0.04666924 -0.034939528 -0.018586127 -0.032522835 -0.01070614 0.0054364265 0.03480071

conv3.bias f4 [3]
00000000: 1d66 a2bb 4f91 1d3d e376 573c
-0.0049560205 0.038468655 0.013150903
