srcnn_model.pth (torch, 83120 bytes, 6 tensors)

conv1.weight f4 [64, 3, 9, 9]
000000 ce 70 e6 3d 9f ac b8 ba 95 4c 0c be c3 d7 16 3c
       0.112519845 -0.0014089531 -0.13701089 0.009206715
000010 46 07 6a 3c 8b 45 4e bd df 9c ac bc 7a b3 60 3d
       0.014283961 -0.05035929 -0.021070896 0.054858662
000020 a6 f9 68 3d c1 f0 a0 bc fe f7 4c bd a0 03 a6 bd
       0.05687871 -0.01964605 -0.05004119 -0.0810616
000030 1b 67 8d 3d 2c 2b 22 3d 89 0f 17 3b 1e c7 5d 3c
       0.069044314 0.039591953 0.002305003 0.013536243
000040 b3 82 bb 3b be 8c a7 bb a6 47 01 bd e9 40 82 bd
       0.0057223677 -0.0051132133 -0.03156247 -0.06360037
000050 70 41 c8 3d 14 3e ed 3d 8a f7 42 3c 5a 12 e0 3c
       0.09778106 0.11584106 0.011899838 0.0273525
000060 83 d1 c5 bd 3c 1d 5d bd 02 a4 8a 3b ff 0f e7 bc
       -0.09659102 -0.05398296 0.004230977 -0.02820587
000070 5a f7 89 3d 2e 4a 05 3e dc 99 31 be 40 0e b0 bd
       0.06736632 0.13016579 -0.17343849 -0.08596468
000080 24 ef 00 bd 21 d5 16 3c b6 36 5b 3c 3d d1 13 bd
       -0.031478062 0.009206087 0.013379743 -0.036088217
000090 c0 94 77 bc 1f cc 8f 3d 3d 84 03 3d 97 2c 30 bd
       -0.015111148 0.07021355 0.032108534 -0.043011274
0000a0 00 eb e1 bd b2 0d 87 3d a2 85 81 3d ac 79 8c bd
       -0.11031151 0.06594409 0.063243166 -0.068591446
0000b0 a9 52 44 ba 07 c4 ba bc c7 8d b2 bd 42 58 b3 3c
       -0.0007489124 -0.022798551 -0.08718448 0.02189267
0000c0 d5 9f 5c 3d 4a ae a7 bc 36 e8 d4 3d 8c b9 d0 3c
       0.053863365 -0.02046885 0.10395853 0.0254791
0000d0 76 ea 6d bc 67 50 18 3d 4a af 5d 3c 38 ea 30 3d
       -0.014521232 0.037186053 0.013530562 0.04319212
0000e0 09 c2 42 bd 95 77 91 3d b0 55 37 3c 73 22 88 bd
       -0.047548328 0.071028866 0.011189863 -0.06647196
0000f0 61 73 6a bd a6 08 fa bb 4c 4e 80 bc f9 26 58 3b
       -0.05723894 -0.0076304255 -0.015662335 0.0032982214
000100 76 03 4d bc cf 2a 2c bd 74 df 81 3d 1a fe bb 3c
       -0.012513032 -0.042033013 0.063414484 0.022948314
000110 bc 38 42 3c 27 45 fe bc e7 37 eb 3c 6f 3a da bc
       0.011854347 -0.031038834 0.02871318 -0.026639191
000120 59 8f 7a 3d b5 66 0a bd a9 aa 08 bd c0 6d 8a bc
       0.061171863 -0.033789355 -0.03336588 -0.016898036
000130 01 b0 8c 3b 71 6e ec 3b 8c 32 d9 3b 2b bf 38 3d
       0.0042934422 0.007215314 0.00662834 0.045104187
000140 35 f1 1d ba e1 52 9d 3d 5b 61 ef bb dc fe 71 bd
       -0.00060250174 0.076818235 -0.007305307 -0.059080943
000150 77 68 87 3d 12 a5 62 bd 9b 81 02 3b d4 fe 4d 3d
       0.06611722 -0.055333205 0.0019913677 0.05029185
000160 9f fe 0e 3c 93 dc 36 bd a7 26 64 3b ea 39 e7 3b
       0.008727699 -0.04464395 0.0034813078 0.0070564644
000170 5f 85 99 bb 95 3e c3 3d 79 75 d0 3b e9 58 80 bd
       -0.0046850885 0.09533421 0.00636166 -0.06266958
000180 ad 7a c4 bc f4 17 f3 bc 04 9d fb ba cd 62 fb bc
       -0.023984278 -0.029674508 -0.0019196575 -0.03068676
000190 fb df 89 bd ad a8 31 3e 3f 0b 8c 3d bb a4 74 3d
       -0.06732174 0.17349501 0.068380825 0.05972741
0001a0 37 c3 9d bc 8b 2c a1 3c d2 c9 84 3c 9a 23 5f 3c
       -0.019258125 0.01967456 0.016209517 0.013619328
0001b0 44 27 82 bd ee 7b e6 3d 3b ae 1d 3e 28 cf ae be
       -0.063551456 0.112541065 0.15398495 -0.34142423
0001c0 3f 7c 50 bd ce 5b 56 3d e9 a4 22 bd f0 ac 4d 3d
       -0.05089974 0.052333646 -0.03970805 0.050213754
0001d0 87 72 e0 bc 0f 26 86 bc 8a 1c b6 3c cc 57 e4 bb
       -0.02739836 -0.01637557 0.022230405 -0.006968474
0001e0 9c 57 d7 bd cd 34 2d bc 5c f6 27 3e de 6b d8 3d
       -0.10514757 -0.010571671 0.16402572 0.10567449
0001f0 47 8c 33 bd 11 f0 8d 3b ba e3 5b bd 14 e1 4c bc
       -0.04383495 0.0043315967 -0.053683974 -0.012504835
000200 d1 0d db 3c 1f 34 59 bc 2b 1f 37 3d 27 b1 bd 3d
       0.026739987 -0.013257056 0.04470746 0.09262305
000210 b9 6d 48 3c ac c3 5b bd 89 9e 90 3c ed 19 91 3c
       0.012233191 -0.053653404 0.01765372 0.017712558
000220 ab 05 a3 3c 21 d0 34 bb 08 65 ef 3c 9f 52 58 bd
       0.019900164 -0.0027589875 0.02922298 -0.05281317
000230 a9 13 86 bd 54 8e f1 bd a2 32 33 bd 6c 47 86 3c
       -0.065467186 -0.11794725 -0.04374946 0.016391478
000240 1b 37 d0 bb 0b fd 2f bd 3f 34 45 3d 6f ae 7d bb
       -0.0063542253 -0.04296593 0.04814553 -0.0038708707
000250 a5 19 b0 ba 95 3f 9b bd 79 ea ca bc 1b 03 db 3d
       -0.0013435377 -0.07580487 -0.024770008 0.10693952
000260 80 78 08 3c 0f bc 34 bb fb 79 ad bc eb 8f 46 bd
       0.008329511 -0.0027577912 -0.021176329 -0.048477095
000270 c0 ed c8 3c 5a d2 e2 bb c6 23 d5 3c 4e 5d 5f 3d
       0.02452743 -0.0069220485 0.026018035 0.05453234
000280 e8 b8 c7 bc bc da 51 bd ff fa 8d bc c5 c4 29 bd
       -0.024380162 -0.051233992 -0.017331598 -0.04144742
000290 ab 08 b0 3b 07 88 89 bd 14 09 10 bd 34 62 30 3d
       0.005372127 -0.06715398 -0.035164908 0.043062404
0002a0 b4 d8 ac bc 0f 80 ad 3c 92 33 95 bb 16 dc 07 bd
       -0.021099426 0.021179227 -0.004553267 -0.033168875
0002b0 61 1b da 3b 1a b0 5d 3d 77 dd 3c bc e2 10 bb bb
       0.006656096 0.05412302 -0.011527411 -0.0057087997
0002c0 f7 6f a8 3c ec 6d 81 3d 53 ca 66 3b 75 54 c4 bc
       0.020561201 0.06319794 0.003521581 -0.023966054
0002d0 47 58 b2 3c 5c f5 77 3d 70 99 ba 3d ef 9f ac bd
       0.02177061 0.060536727 0.09111297 -0.084289424
0002e0 ef 23 48 3c 4f 0d 0f 3e de e9 59 3d a9 ae 9d 3c
       0.0122155985 0.1396992 0.05320155 0.019248324
0002f0 92 16 94 3c b0 70 62 bd 49 b6 ab 3d dd 86 3a be
       0.018077169 -0.05528325 0.083843775 -0.18215509
000300 31 a8 73 bf 84 70 8a be cf 0a 84 3d 11 97 84 bd
       -0.95178515 -0.27038968 0.06447374 -0.06474126
000310 59 34 d4 bc e6 54 08 3c c0 c3 a2 bd ec 10 31 bd
       -0.025903868 0.008321023 -0.079474926 -0.04322903
000320 8d 84 43 be 5a c3 0d bf ea f5 07 3d 01 b0 72 3e
       -0.19093533 -0.5537621 0.033193506 0.23699953
000330 b6 ab e9 3d 24 95 cd bd e4 81 97 bc 38 94 32 3d
       0.114097044 -0.10038212 -0.018494554 0.043598384
000340 ce be 02 3e ca 51 7e 3d a0 c3 ad bb 1c 78 31 3e
       0.12768099 0.06208972 -0.0053028613 0.17330974
000350 58 05 9b 3e 62 69 73 3d c2 b5 02 b9 f9 99 9a 3b
       0.30277514 0.059426673 -0.00012465476 0.004718062
000360 2a ea 16 bc 49 09 9d 3c c0 9b cd 3d 62 6a fa bc
       -0.0092111025 0.019169467 0.100394726 -0.030568305
000370 21 00 0a 3e cb af a2 3d 0e 09 f3 bd 5d b5 12 bd
       0.13476612 0.07943686 -0.118669614 -0.035817493
000380 90 af e2 bc a2 82 11 3d f0 1e 37 bc 35 e7 14 3d
       -0.027671605 0.03552497 -0.01117681 0.03635331
000390 d8 4a af bd b7 27 2c bd c6 7e 98 bd 16 41 7d bd
       -0.08559197 -0.042030063 -0.07446055 -0.06182965
0003a0 68 f5 72 3d 78 eb 13 3d 9c 94 94 bc 80 32 00 3d
       0.05931607 0.036113232 -0.018137269 0.03129816
0003b0 de af 78 3c 20 10 02 3c 0b 49 95 3b 6f 1f 2f bc
       0.015178649 0.007938415 0.0045558265 -0.010688647
0003c0 1d b5 64 3d b8 21 e5 3c 93 51 0a 3c 0e f1 20 bd
       0.055836786 0.02797018 0.0084423 -0.039292388
0003d0 9e b8 00 bc 10 da 5b 3d 52 7f 28 3d dd d9 28 3c
       -0.007856516 0.053674757 0.041137047 0.010305849
0003e0 4e f2 f3 3b 7a ae 3e 3c 39 1e 6f bd 91 03 4c bd
       0.0074446565 0.011638278 -0.058378432 -0.04980809
0003f0 f2 10 70 bd bd 5f cc bc 0d a9 85 3d 01 66 69 bd
       -0.05860991 -0.024947995 0.065263845 -0.056982044

conv1.bias f4 [64]
000000 0c f5 f6 3d 1b 1c 2a 3c 08 a2 2a 3d 3c 9a b2 3d
       0.12058458 0.010382677 0.04165843 0.08720824
000010 20 15 92 3b 6b 08 16 bd f5 4a 82 3d a2 2c 96 3c
       0.0044580847 -0.03662912 0.06361953 0.01833183
000020 f8 3d 86 3d 40 41 2f 3c 1d 98 3a 3d 5c 13 a2 bd
       0.06554788 0.010696709 0.045555223 -0.07913849
000030 e3 f6 e9 3b e9 82 d7 bc b0 0a 2b 3e 12 0f 17 3d
       0.007140027 -0.02630754 0.16703296 0.036879607
000040 7d 9d c4 3d af d1 8e 3d d0 aa 00 3d d6 d7 a1 3d
       0.09600351 0.06973588 0.0314129 0.079024956
000050 65 0a 9e 3d 49 52 0a be 54 86 0d 3d a9 1f ff 3c
       0.07716826 -0.13507952 0.034551933 0.031143026
000060 f8 1f ac 3e fc af 77 bd 37 d8 42 3d fe f3 32 bd
       0.3361814 -0.060470566 0.04756948 -0.04368972
000070 69 23 bd bb 7b a9 bf 3d d2 0c f0 3d 31 38 43 3d
       -0.0057720435 0.09358498 0.11721195 0.04766101
000080 56 05 6d 3d 3f 5d 23 3d 63 4d 86 3e 88 e8 8b 3d
       0.057866417 0.03988385 0.26230916 0.06831461
000090 05 45 29 be ea 64 59 3e 7d a1 b2 3b 76 63 45 3e
       -0.16530235 0.21229902 0.00545138 0.19276223
0000a0 cc d1 56 bf d1 ca b4 3d a5 c1 04 3d 10 aa dc bc
       -0.83913875 0.08827747 0.032411236 -0.02693656
0000b0 9a e4 28 bd 54 5f ee 3c ed 08 16 3c 54 f2 f4 3c
       -0.041233636 0.02909819 0.0091574015 0.029900707
0000c0 d3 df 56 bd 98 44 52 bd 43 d3 16 be 95 07 ed bc
       -0.05245955 -0.051334947 -0.14729027 -0.02893428
0000d0 52 80 e4 3c 43 0a 43 be bd 34 9e 3d 66 d0 67 bd
       0.02789322 -0.19046883 0.07724903 -0.05659523
0000e0 1e f6 4a be bf ca 80 bc a9 68 bd bb ca a5 11 3d
       -0.19820449 -0.015721677 -0.0057802987 0.0355585
0000f0 c7 6d 92 bc 77 37 04 3e 24 bc ac 3c cc af 59 3d
       -0.017874612 0.12911783 0.021085806 0.05314617

conv2.weight f4 [32, 64, 1, 1]
000000 68 56 04 bd c0 f0 0f be 32 ab 17 3d 54 e4 8c bd
       -0.032308966 -0.14056683 0.0370285 -0.06879488
000010 65 19 b2 3c 74 4d 9d 3d 2c c9 a4 3c 45 a3 1e 3d
       0.021740625 0.07680789 0.020115457 0.038729925
000020 f0 d9 a1 bd d9 7a 81 3d 5e c5 a2 3d 51 c8 75 3d
       -0.079028964 0.063222595 0.07947801 0.06000549
000030 3f ed 23 bc 80 7c 78 bd ce 62 75 3d 8c 2f 3b 3c
       -0.010005294 -0.060665607 0.05990868 0.01142491
000040 e9 e0 c8 bd 67 48 0b 3e 25 ba 4b bd 29 5b ee 3b
       -0.09808523 0.13601838 -0.049738068 0.0072740507
000050 10 4f 3a 3c 47 1c 37 3e 2d 85 e6 bd 26 7d 60 bd
       0.011371389 0.1788188 -0.1125587 -0.05480685
000060 69 3e ac 3d 25 64 0b 3d ed 50 f5 3d 53 9f 69 3d
       0.08410341 0.034031052 0.11978326 0.05703671
000070 ab 6f 79 bb 7a 21 38 3d 2b f7 35 be 23 f8 ec 3d
       -0.0038060944 0.0449538 -0.17770068 0.11570766
000080 49 83 4a bd 5b c7 29 3e ca 35 6e 3e eb f1 28 3c
       -0.04944161 0.16579954 0.23262706 0.010311584
000090 3b 30 bd bd fc 29 2f 3d c5 e1 d6 3c 27 4f 1d be
       -0.09237715 0.04276465 0.026230702 -0.15362225
0000a0 ff c2 00 be 22 70 43 3d 0a 26 b8 3d 35 a8 5a bd
       -0.12574385 0.04771436 0.089916304 -0.05338307
0000b0 fe 4f 9c bd cc d6 fc bd 37 27 97 3c 8e df 2e 3e
       -0.07632445 -0.12345657 0.018451316 0.17077467
0000c0 2f ac 45 3d 7a fd e5 3d 42 88 85 3d 77 c2 84 bd
       0.04825991 0.112299874 0.0652013 -0.06482404
0000d0 7c 0f bf 3d 5c 74 0a 3e 7e ed 8f bc a9 2e c2 3d
       0.09329125 0.1352095 -0.0175693 0.09481556
0000e0 a4 0d ea bd ef d3 ad 39 bc 75 02 3e b7 ec d9 bd
       -0.11428383 0.00033155034 0.12740225 -0.10640853
0000f0 a9 2d 8c 3d c5 3f 65 bd f0 a4 3d 3d 4f 2a 68 bd
       0.068446465 -0.05596902 0.046299875 -0.056680974
000100 27 a0 3e bd 04 44 dc 3c 58 c9 86 3d 0d a9 9d bc
       -0.046539452 0.026887901 0.06581372 -0.019245649
000110 2d d8 6c 3e 9f dc 40 3c e1 26 02 3c 2c e3 88 bd
       0.2312934 0.01177135 0.00794384 -0.066839546
000120 9e 51 94 bd 89 d3 49 bc d2 e7 6a 3d e9 cc da 3d
       -0.0724213 -0.0123185 0.057349987 0.10683615
000130 f5 9b 42 bd f6 b3 08 be ba cf 58 3d fb 2e 14 3e
       -0.047512013 -0.133499 0.05293248 0.14471047
000140 70 6e e9 3b f9 4b 9c bd 06 63 a1 3d 29 33 80 3c
       0.007123761 -0.07631678 0.07880215 0.015649395
000150 6b 62 80 bd f3 22 0e bc d2 78 4e 3d e7 87 a1 3a
       -0.06268772 -0.008675325 0.050408192 0.0012323827
000160 e0 a8 b6 bc 58 83 47 bd f5 79 c6 3d e2 61 60 bd
       -0.022297323 -0.048709244 0.0969123 -0.05478085
000170 1b 04 8d 3d 8f e5 25 3d b9 ce 98 bc b0 a7 65 bd
       0.06885549 0.040502127 -0.01865326 -0.056068122
000180 44 01 1f 3d 2b a5 2d 3c cc 81 34 be 82 6d 26 3c
       0.038819566 0.010598461 -0.17627639 0.010157945
000190 5a c1 f1 bd 46 38 f9 3c fc 95 75 3e c4 f1 6c bd
       -0.11804457 0.030422341 0.23982996 -0.057847753
0001a0 34 b4 c1 3d 04 0f 05 be a5 49 2d 3e a2 3d 95 bd
       0.09458199 -0.1299401 0.16922624 -0.07287146
0001b0 8e 32 84 bd f2 63 df 3c ec da 48 bd d3 75 75 3c
       -0.06454955 0.027269337 -0.049036905 0.014981705
0001c0 a0 c1 fc bd 9b db 55 3d f4 7a e3 3d 6b d2 a2 3d
       -0.123416185 0.052211385 0.11107436 0.0795029
0001d0 8e 15 73 3b 06 59 08 3b 43 c5 a3 bd 7c 00 dc 3d
       0.0037091705 0.0020805015 -0.07996609 0.1074228
0001e0 c5 9c 01 bd f5 83 bb bc 4f 0a b5 3d f2 68 0c bd
       -0.031643648 -0.02289007 0.08839857 -0.03427977
0001f0 5d 55 d2 bc a4 94 f3 3c b4 ea 4f 3e 13 61 c0 bd
       -0.02567547 0.029733963 0.20304376 -0.093935154
000200 83 f9 4f bc 5b 7a b9 bc 5e 17 bc bd 54 c9 4e bd
       -0.012693766 -0.022641351 -0.091841444 -0.05048497
000210 8c ec 26 3e 3d 03 88 3c ec ef 14 3c 12 47 4d 3d
       0.16301173 0.016603107 0.009090405 0.050116606
000220 8c 8f a5 3d 05 3c 12 bc 89 2f d1 3d 12 96 50 3d
       0.0808402 -0.008925443 0.10214145 0.05092437
000230 88 1b 56 bd ee 18 8c 3d bf fd 34 bd 34 68 58 3d
       -0.05227235 0.068406925 -0.044187304 0.05283375
000240 15 a7 93 3d d8 1c 85 3d 10 bf 1f 3e 2b 6a 82 bd
       0.07209603 0.06499642 0.15600228 -0.06367906
000250 83 fc 85 3b 0f 3c 35 bd a3 88 c2 3d 43 e6 14 bb
       0.0040889396 -0.04424673 0.09498718 -0.0022720254
000260 9e 13 c6 3c a2 27 7a bd ec de 92 3e dd 03 b3 3d
       0.024179276 -0.061072953 0.286857 0.08740971
000270 ae 88 30 bd 88 35 80 3c 11 3d a1 3d 16 57 95 3d
       -0.043099098 0.015650526 0.078729756 0.07292001
000280 e8 c9 55 3d 2c 32 b0 3d 6d 21 94 3d de 4f 61 bc
       0.052194506 0.086033195 0.07232938 -0.013751952
000290 d4 0a 5a bc 20 ec fb 3c 94 f0 ab bd 89 3b 2a 3c
       -0.013308246 0.030752242 -0.08395496 0.010390171
0002a0 09 a0 11 bd 30 d7 6f 3c 05 2a ad bc 49 fb 9d bd
       -0.035553012 0.014638707 -0.0211382 -0.077139445
0002b0 16 20 e7 3d 8e 06 36 3e 22 f5 d6 bc d0 b0 00 3d
       0.11285417 0.17775938 -0.026239935 0.03141862
0002c0 71 d5 0a bc 8b 62 d2 3b b6 00 98 3c 6f b1 18 bd
       -0.00847374 0.0064204386 0.018555027 -0.03727859
0002d0 3f 3c 68 3d 67 ad e6 bc a0 21 22 bd b5 19 2a bd
       0.05669808 -0.028158857 -0.03958285 -0.041528422
0002e0 de 8a a3 bc 66 d9 5d 3a ec 0e e5 3d b9 32 7b 3d
       -0.019963678 0.0008462876 0.11184487 0.06132767
0002f0 8f 74 28 3d 6f d3 97 bd 35 b7 da bc fd 48 98 bd
       0.041126784 -0.07413375 -0.026698688 -0.074357964
000300 cc de a9 bd b5 c5 d9 bd 0d fe 74 3d c4 54 48 3c
       -0.08294448 -0.10633413 0.059812594 0.012227241
000310 25 42 7c 3d 6d db b0 bc 03 aa 45 3d 15 5a 3f 3e
       0.061586518 -0.021589005 0.04825784 0.18686707
000320 aa d0 ba 3d 61 d2 2e bd f0 ec cc bc d6 d4 6c 3c
       0.09121831 -0.0426811 -0.025015324 0.014455041
000330 83 74 3e 3d 59 56 81 3d 0e 54 e2 bc 05 83 21 bd
       0.046497833 0.06315298 -0.027627971 -0.03943159
000340 3d c5 90 3d ba 49 5f 3d e2 36 90 3d 98 b5 08 3d
       0.0706887 0.05451367 0.07041718 0.033376306
000350 17 9a b1 3d ef 2f 2d 3e c8 39 6a 3c 9e cb 4d 3e
       0.086719684 0.16912816 0.014296003 0.20097205
000360 7a 2e f7 bb f7 ff 16 bc 97 f0 9a bc 1e f6 bd 3d
       -0.0075433822 -0.0092163 -0.01891355 0.09275459
000370 8a 9b ef bd a4 64 bc 3d df 58 15 bd c6 12 c1 bd
       -0.116995886 0.09198883 -0.036461707 -0.09427409
000380 c3 4c a5 3d 37 3b 42 3e af c8 30 be 51 80 a8 3c
       0.08071282 0.18967901 -0.17264055 0.020568999
000390 1c ed 1b bd 7d d6 85 bd 1f 3a 9a bd 97 5d d7 bd
       -0.038067922 -0.06535051 -0.07530617 -0.10515898
0003a0 3c c6 2d be 02 19 a8 3d a3 21 d4 bd 44 e7 85 bd
       -0.16970152 0.08207895 -0.10357978 -0.06538251
0003b0 64 e3 1a bc e3 97 97 bc c4 67 24 bd 95 2f 10 3e
       -0.009453628 -0.018505042 -0.04013802 0.14080651
0003c0 1d 02 95 bd 13 e5 fb 3d 56 dc 82 bd a4 ac c7 bc
       -0.07275794 0.12299552 -0.06389682 -0.024374314
0003d0 5f 82 f6 3d 74 55 d8 bd f2 7b 10 be 29 a5 da bd
       0.12036585 -0.10563174 -0.14109781 -0.10676033
0003e0 5b c1 7d 39 46 f2 e0 3c af 28 83 3d 0e 44 b0 bc
       0.00024199991 0.027459275 0.06404244 -0.021516826
0003f0 77 d3 4a 3d 4e 0a 21 bd e2 94 9f 3d c6 55 9a bd
       0.049518075 -0.039316468 0.07792069 -0.07535891

conv2.bias f4 [32]
000000 e3 5e 7f bd fe 55 a4 3d aa 77 8e bd cc 4e 9b 3d
       -0.06234635 0.08024214 -0.06956418 0.07583389
000010 b0 82 4f bb 21 56 e3 bd b2 74 4a 3a 62 db 97 bb
       -0.003166359 -0.11100412 0.00077230774 -0.0046343068
000020 49 78 14 3c 9a a8 62 bd 6d 1c 1b bd 02 6b 94 3d
       0.009061881 -0.055336572 -0.037868906 0.072469726
000030 8c 57 b9 3b ac c0 b4 3d bb 17 9c bc a2 25 8e bb
       0.0056561884 0.08825812 -0.019054284 -0.0043379823
000040 f9 c5 d5 bc 41 4e 0c 3d 9c a4 00 3e 7c 98 9c bc
       -0.026095377 0.034254316 0.12562793 -0.019115679
000050 22 66 f9 bc 45 90 a4 3b 0c 0b 94 3d ef 08 78 bd
       -0.030444209 0.005022081 0.072286695 -0.060555395
000060 98 3f af 3d a1 cf 80 bd ce 72 88 bd d9 2b a2 bd
       0.085570514 -0.06289602 -0.06662522 -0.079185195
000070 58 11 9c bd ba f0 a8 bd 96 15 96 3d eb 9d c0 bd
       -0.076204956 -0.0824904 0.07328336 -0.094051205

conv3.weight f4 [3, 32, 5, 5]
000000 21 68 11 bd 58 68 cc 3c e3 4d ad 3c e6 29 32 bc
       -0.035499696 0.024952099 0.021155303 -0.010874247
000010 e4 d6 ea bc a2 16 29 bd 7c 59 d5 3c 31 b1 f9 bb
       -0.028666921 -0.04128135 0.026043646 -0.00762
000020 cc 66 52 bd ce 75 78 bd 1a ff 81 3a ce 56 f9 3d
       -0.051367566 -0.060659222 0.0009917945 0.1217476
000030 1b 67 22 3e 0c 7b 40 bd b8 71 c7 3b 6a 40 19 3d
       0.15859644 -0.046992347 0.0060865544 0.037414946
000040 e3 06 96 3d f0 39 af 3c d9 0b 10 bc c0 f1 73 3c
       0.07325532 0.021389931 -0.008791887 0.014889181
000050 38 5a df bc a5 18 04 bd e4 05 91 bd eb 13 63 bd
       -0.0272647 -0.032250065 -0.07081202 -0.055438917
000060 66 24 15 bc a0 85 03 bd 55 22 38 3c 96 62 a0 3c
       -0.009102916 -0.032109857 0.011238654 0.01957826
000070 79 ef 43 bd c8 48 de bc 97 2f 06 bc b5 72 08 bd
       -0.0478358 -0.027134314 -0.008190057 -0.03331252
000080 e3 9e 5e bc c2 cd 68 3b 22 49 13 3d 5c 98 f5 3c
       -0.013587686 0.0035523032 0.035958417 0.029979877
000090 66 e9 04 3c cd f5 e6 bc 4f 23 ad 3c 67 4e ab 3d
       0.008112287 -0.028193379 0.021135 0.083645634
0000a0 c6 00 d8 bb 97 2a 42 bc 5b 8f eb 3b 21 75 8c 3c
       -0.006591889 -0.0118509745 0.00718872 0.017145695
0000b0 d5 8c 69 3d 89 dd 6c 3c 82 03 c2 3c 32 e6 27 3d
       0.057019074 0.014457115 0.023683313 0.040991016
0000c0 71 07 bf bc fd e1 53 bc d8 14 3a bd 75 af fc b9
       -0.023318978 -0.012932298 -0.045430034 -0.0004819591
0000d0 ca 29 06 3d ee 44 61 3c 15 ab 99 bc 7a 8a 14 bd
       0.032754697 0.013749344 -0.018758336 -0.036264874
0000e0 51 99 68 3d b1 4c 05 3e d7 78 12 3d 54 9f 20 3d
       0.05678684 0.13017537 0.035759773 0.039214447
0000f0 9b f2 bc bc bd bb a0 3d 71 74 07 3e 5a f3 03 3e
       -0.023064902 0.07848308 0.13228013 0.128858
000100 d6 6d aa 3d e5 75 2b bc 7d 67 6b bc 2a 8b b4 3d
       0.08321731 -0.01046512 -0.014367935 0.08815606
000110 43 03 99 3d 39 7f 1b 3d c3 0a 8b bc 2f 93 8e b7
       0.07471325 0.037963126 -0.016972905 -1.6996257e-05
000120 45 4b 01 3c 23 bf 73 bd 49 ee 35 bd 6d 78 90 3c
       0.007891481 -0.059508454 -0.0444167 0.017635548
000130 b4 cd 8d bc 7a b7 3a bc 10 b1 27 bd 4a f5 2c bc
       -0.017310001 -0.011396283 -0.040940344 -0.010556528
000140 69 bd a0 3c f0 6e 86 3a f8 1a 1d 3c 30 5b 45 bd
       0.019621568 0.0010256451 0.009588949 -0.048182666
000150 a7 71 f0 bc 25 cf de bc a0 30 30 3c 78 c0 84 3d
       -0.029351069 -0.027198384 0.010753781 0.06482023
000160 9e 34 14 3d 3f 2c e4 3c 95 b8 62 bd b2 9f 1d 3d
       0.036182992 0.02785313 -0.055351812 0.038482375
000170 67 87 89 3d de 37 fe 3c ff d8 19 3b 31 27 32 bc
       0.06715279 0.031032499 0.0023475287 -0.010873602
000180 3e 19 8c 3b 29 24 f6 b9 0e a2 87 bc 15 5e 45 bd
       0.00427547 -0.00046947718 -0.016556766 -0.048185427
000190 65 ba cb bc 22 37 c6 3c 06 9a 9f 3c 08 c4 66 3b
       -0.024869153 0.024196211 0.019482624 0.0035212059
0001a0 3c d1 d2 3c b0 ca 83 3d d1 9f cf bd 0a 79 8a bc
       0.025734536 0.06435144 -0.101379044 -0.016903419
0001b0 17 82 3b bd 38 47 da 3b 1d fd bc bb 9e bc 55 bc
       -0.04577836 0.006661322 -0.005767478 -0.013045458
0001c0 41 ab 2f 3e a1 77 13 bd b1 63 9a bc 5b 6e e9 3a
       0.17155172 -0.03600276 -0.018846365 0.0017809378
0001d0 e9 08 76 bd 74 f2 86 bc b4 23 e6 bd bc 09 81 3b
       -0.06006709 -0.016473033 -0.112372786 0.003937928
0001e0 3e 9e c7 3c 3c 32 5a 3b 80 e1 5d bc 83 ba 0f 3c
       0.024367448 0.0033294102 -0.013542533 0.008772495
0001f0 74 64 58 3c 81 8f fd 39 04 74 81 3c 76 67 5a 3d
       0.013207544 0.0004836284 0.01580239 0.053321324
000200 52 8a f2 3c 03 53 1e 3c 90 42 16 bd 67 d2 25 3d
       0.029606972 0.009663346 -0.036684573 0.04048386
000210 da 13 0d 3d 92 80 57 bc d9 cd d4 bb 23 83 6e bd
       0.03444276 -0.013153212 -0.0064942655 -0.05823053
000220 f5 5c b4 bc 69 29 02 bd 44 d0 ee bc 7d c2 e4 bb
       -0.022016982 -0.031777773 -0.029152043 -0.0069811926
000230 ba 63 3d bd a1 23 c9 3c d0 57 37 3c 6f 7b 1f 3d
       -0.046237685 0.024553122 0.01119037 0.038936075
000240 de 3f 67 bb c4 b2 00 bc 50 c3 b0 3c 56 a2 a4 3c
       -0.003528587 -0.007855121 0.021577507 0.020096939
000250 b2 33 90 3c f0 32 d7 3a 20 25 8e 3d 52 c4 d7 3c
       0.017602775 0.0016418379 0.06940675 0.02633873
000260 64 37 83 bb 05 c7 0b bd da 59 6e bc a0 2c 1e 3d
       -0.004004406 -0.034125347 -0.0145477895 0.038616776
000270 5e 22 6b bc 8a de 6b 3d e1 d5 d5 3d 37 9f 40 3c
       -0.0143514555 0.057585277 0.10441185 0.01175671
000280 8e 8e 7c bd 22 d9 16 be cc 3b 9a bb 02 55 2b 3d
       -0.06165939 -0.14731267 -0.0047068354 0.041829117
000290 c5 66 0c bd 1e 6b 99 bb 0a ae ba bd 2d fb f7 bc
       -0.034277696 -0.004681959 -0.091152266 -0.030271137
0002a0 eb 8c 13 3c 6c fc 4a 3a 43 af c1 3d 7e 12 eb bb
       0.009005765 0.0007743302 0.09457257 -0.0071738353
0002b0 92 2b a1 3c f8 fd 68 3d 3b 2c 6e 3d 13 ea f9 bc
       0.019674096 0.05688283 0.05814765 -0.030507123
0002c0 bb ce 10 bd 4a 68 6f 3c 53 e0 20 3c 44 0d 41 bb
       -0.035353404 0.014612267 0.009819108 -0.002945737
0002d0 b6 2c b8 3c 03 83 b9 bc f0 57 7a 3c 83 2e aa 3c
       0.022482257 -0.022645479 0.015279755 0.020774132
0002e0 74 3d 36 bd 48 ea 02 3d 88 7b 24 3c 96 b3 22 3c
       -0.0444922 0.03196171 0.010039218 0.009930512
0002f0 bf 34 7d 3c 7f 53 fa bc b7 33 fc bc 65 35 7c bc
       0.01545447 -0.030557392 -0.030786378 -0.01539359
000300 b1 9e 0b bc 03 ae cf 3c de 60 1e bc 48 46 b4 3c
       -0.008521722 0.02535153 -0.00966665 0.022006169
000310 7e 4e df bc 3d 3a bd 3c 5f e9 c6 3c a8 c4 91 3c
       -0.027259108 0.02309906 0.024281202 0.017793968
000320 97 48 a9 3c 4c 5c 92 bb 69 a0 d0 3c fe af 14 3c
       0.020664496 -0.004466569 0.025467115 0.009075163
000330 36 b4 0b 3c 56 e8 7d 3c a5 d9 ce 3a 4c cb 72 3c
       0.008526852 0.015497288 0.0015781416 0.014818978
000340 f7 9a 39 3c dd 44 10 bc 14 a6 e4 3c 4d c9 67 3d
       0.01132845 -0.008805481 0.027911223 0.05658846
000350 05 b6 0e 3d 54 26 09 3c e7 dd a1 bb bd d4 b7 3b
       0.034841556 0.008370955 -0.004939783 0.005610077
000360 cc d0 18 3d 49 dc 3e 3d 83 6e af 3c 16 e8 15 bc
       0.0373085 0.0465968 0.021415 -0.009149572
000370 9d 60 c7 bc ff a9 38 bb f1 fb 75 3d 5f fa b9 3c
       -0.024338061 -0.0028177497 0.060054723 0.022702394
000380 17 75 61 bd 2b d3 a9 3c 53 cd 57 3b d7 cc 3a bc
       -0.055043306 0.020730576 0.003292878 -0.011401377
000390 92 4f 34 bc 07 6a b2 bb f0 5d a3 3b 3d b6 21 bd
       -0.011005299 -0.0054447684 0.0049855635 -0.039480437
0003a0 41 f8 3b bc 84 ff 4d bd e6 b9 47 bc c0 f9 c7 3c
       -0.011472763 -0.050292507 -0.012190318 0.024411082
0003b0 76 5c 8a bc 53 e8 da 3d 82 de b9 bc 14 5f 73 bc
       -0.016889792 0.106888436 -0.022689108 -0.014854211
0003c0 5e f0 ff bc 44 b3 b3 bd ff e4 86 bb da 74 87 bd
       -0.031242546 -0.087744266 -0.004116654 -0.066140845
0003d0 33 e6 df 3b 6f fa 86 bb d5 ef 26 39 92 1b 2d bc
       0.006832862 -0.0041192095 0.00015920338 -0.010565655
0003e0 3a c1 e1 ba ae 7a 7f 3c a6 20 14 bc dc b2 b6 b9
       -0.0017223724 0.015593214 -0.009040987 -0.00034847006
0003f0 d5 ab 06 3d c5 20 80 3c 5c b9 20 bd b0 40 75 3c
       0.032878716 0.015640626 -0.039239272 0.014969036

conv3.bias f4 [3]
000000 cb 4c b4 3b 46 58 f8 3b f9 c1 e3 3b
       0.0055023185 0.0075788824 0.0069506136
