srcnn_model.pth (torch, 824758 bytes, 16 tensors)

conv1.weight f4 [64, 3, 9, 9]
-0.02295282 0.025029795 0.02155213 -0.011482222 -0.019572737 0.040275127 0.020586446 -0.035098232
-0.013306463 0.038328934 0.0043141455 0.02213521 -0.0024201707 -0.022992838 -0.012484175 0.022214405
0.0043306598 0.043543596 -0.051704742 0.06093413 0.065217644 0.06337484 -0.010904346 0.08720915
0.021985173 -0.023141004 0.015910536 0.06806716 -0.029735968 -0.03001936 0.03383905 -0.04431775
0.0585725 -0.063485734 -0.028130205 0.0032834562 -0.01163416 -0.009531093 -0.0011028612 -0.04117295
-0.12771179 0.016611379 0.0077502406 -0.05784361 0.0021694652 -0.02197331 0.027331315 -0.068168074
-0.14706276 -0.123765185 -0.070079975 -0.04987937 -0.018764663 0.057709407 0.04165756 -0.04530979
0.041696444 0.021658901 -0.086937755 -0.06163711 -0.074714266 -0.0012422843 -0.02215997 -0.020029474
-0.0018490432 0.017542705 0.040729895 0.01669928 -0.0018560501 0.01908936 -0.0136355655 0.052060198
0.01729826 0.028795503 -0.066130295 -0.047441725 0.03978694 -0.052067477 0.055362936 0.020107089
0.053538773 0.022992581 -0.011370169 -0.019892143 0.032803755 -0.026624216 0.02774171 -0.018180666
0.0010361662 0.0032176543 0.057295904 -0.020354442 0.0415989 -0.044514257 -0.01647683 -0.06686649
-0.01112188 0.04579996 -0.07005826 -0.02339875 0.005701747 -0.06744209 -0.03913992 -0.09466497
0.033013083 -0.03802659 -0.03908173 -0.019154627 -0.039307717 -0.03690356 0.024218205 -0.15413561
-0.12575872 0.036156245 -0.043654695 0.043389637 0.02451328 0.07431056 -0.025743531 -0.023735354
-0.11510056 -0.058406595 0.09674884 0.08760957 -0.01014116 -0.013543369 -0.05068089 0.06643519
-0.055797707 -0.09352869 -0.04202876 0.070640735 0.10671533 -0.023040863 -0.013655235 -0.013953086
0.03552334 0.015490655 0.057631414 -0.020243345 0.07303271 0.06844807 0.019527005 0.03467729
-0.013084492 0.059103757 -0.0027507693 0.04321717 0.008798291 -0.055316657 0.054636396 0.000884593
-0.06457146 0.0006487449 -0.047591217 -0.016584828 0.010033192 0.02277242 -0.009053349 -0.062820144
0.023014419 -0.07081383 -0.012372903 -0.011531332 0.011334811 0.009001022 -0.014659014 -0.05623118
0.036551062 -0.065461375 0.03591575 -0.06751312 -0.026253868 -0.052907143 0.018178582 0.021534838
-0.016947212 -0.015536781 0.0062779263 0.05864776 0.048042588 0.00093453075 0.06387751 0.02562533
0.01417858 0.050720096 -0.030204726 0.049540583 -0.02886032 -0.0032861559 0.009835309 0.03942363
-0.04211481 0.076176725 -0.0041300585 0.04597971 -0.0023808852 0.0101759955 1.2830844e-05 -0.037959423
0.013764757 0.009091686 0.10322588 0.1709331 0.068471 0.030732132 -0.059555054 -0.022504456
0.05078179 0.02421372 0.00056845683 0.08484197 0.13692763 0.046217185 0.022449207 0.0027828536
0.031811934 -0.028588003 -0.015377564 0.072737455 0.08953368 -0.016544333 -0.016038142 -0.02699596
-0.014729355 0.010097797 -0.017785406 0.024385473 0.04677293 0.0030878263 -0.03306402 -0.010488695
-0.064929254 -0.0010904778 0.019929571 -0.0491084 0.0030631046 -0.020115072 -0.02246076 0.009480997
-0.003429779 -0.025170363 0.0068148817 -0.09251291 -0.022861235 -0.047195327 -0.05327495 -0.11775899
-0.15073828 -0.10170089 -0.11456321 -0.07966539 -0.12495148 -0.02510782 -0.05470141 -0.053616047
00000000: 8d07 bcbc 490b cd3c 188e b03c ee1f 3cbc
00000010: 0157 a0bc 88f7 243d e8a4 a83c 2ac3 0fbd
00000020: 5a03 5abc cdfe 1c3d ad5d 8d3b e654 b53c
00000030: ba9b 1ebb 7a5b bcbc 6d8a 4cbc fcfa b53c
00000040: 35e8 8d3b c55a 323d 5ac8 53bd 1196 793d
00000050: d490 853d abca 813d 24a8 32bc b69a b23d
00000060: 401a b43c 3492 bdbc d056 823c cc66 8b3d
00000070: d898 f3bc 29eb f5bc d19a 0a3d 8786 35bd
00000080: b8e9 6f3d cf04 82bd 5171 e6bc 412f 573b
00000090: 349d 3ebc 4d28 1cbc e28d 90ba f8a4 28bd
000000a0: e1c6 02be 9614 883c bbf5 fd3b 6ced 6cbd
000000b0: 962d 0e3b 5f01 b4bc ece5 df3c b49b 8bbd
000000c0: 9f97 16be 9a78 fdbd 1786 8fbd 4f4e 4cbd
000000d0: 5ab8 99bc b360 6c3d 1ea1 2a3d c296 39bd
000000e0: e4c9 2a3d 026e b13c 6c0c b2bd 3277 7cbd
000000f0: cb03 99bd 25d4 a2ba d388 b5bc da14 a4bc
00000100: 985b f2ba b8b5 8f3c 64d4 263d eecc 883c
00000110: b546 f3ba 4a61 9c3c b567 5fbc 133d 553d
00000120: 15b5 8d3c 8ce4 eb3c 526f 87bd 4152 42bd
00000130: a1f7 223d b544 55bd 3fc4 623d 9fb7 a43c
00000140: 794b 5b3d f05a bc3c f249 3abc d9f4 a2bc
00000150: 3b5d 063d 071b dabc 9542 e33c 9fef 94bc
00000160: f8cf 873a 48df 523b 1caf 6a3d 5cbe a6bc
00000170: 9c63 2a3d 9554 36bd 6bfa 86bc 4cf1 88bd
00000180: 8c38 36bc bd98 3b3d b47a 8fbd bcae bfbc
00000190: b8d5 ba3b 141f 8abd 2e51 20bd b5df c1bd
000001a0: ba38 073d c5c1 1bbd 2a14 20bd 2aea 9cbc
000001b0: 2101 21bd 3028 17bd 4265 c63c bad5 1dbe
000001c0: e5c6 00be 9218 143d 44cf 32bd 55b9 313d
000001d0: 13d0 c83c 2330 983d 19e4 d2bc a570 c2bc
000001e0: d8b9 ebbd c13b 6fbd 4124 c63d a56c b33d
000001f0: 1c27 26bc 02e5 5dbc c496 4fbd 2c0f 883d
00000200: 238c 64bd f88b bfbd 5926 2cbd 17ac 903d
00000210: 918d da3d 31c0 bcbc 35ba 5fbc 7c9b 64bc
00000220: ec80 113d 84cc 7d3c eb0e 6c3d 5fd5 a5bc
00000230: 2c92 953d 802e 8c3d 19f7 9f3c c609 0e3d
00000240: 5660 56bc c816 723d 4046 34bb 7d04 313d
00000250: b526 103c b893 62bd 6aca 5f3d 08e4 673a
00000260: 0b3e 84bd 8910 2a3a 02ef 42bd e8dc 87bc
00000270: 4262 243c 3a8d ba3c 7f54 14bc d9a7 80bd
00000280: bc88 bc3c d706 91bd b7b7 4abc e9ed 3cbc
00000290: a5b5 393c 0679 133c 5c2c 70bc aa52 66bd
000002a0: 91b6 153d 9d10 86bd 651c 133d 5244 8abd
000002b0: 5a12 d7bc 29b5 58bd 40eb 943c d469 b03c
000002c0: e1d4 8abc fc8d 7ebc 10b7 cd3b a238 703d
000002d0: 4ec8 443d 4cfb 743a 36d2 823d 36ec d13c
000002e0: 464d 683c e0bf 4f3d e76f f7bc 11eb 4a3d
000002f0: 7a6c ecbc 8c5c 57bb 4724 213c ac7a 213d
00000300: 9480 2cbd 8b02 9c3d 7155 87bb 3855 3c3d
00000310: a008 1cbb 38b9 263c 0e44 5737 577b 1bbd
00000320: 9385 613c 4cf5 143c 1768 d33d 1609 2f3e
00000330: 863a 8c3d f4c1 fb3c 00f0 73bd 445b b8bc
00000340: 9100 503d da5b c63c 7e04 153a a0c1 ad3d
00000350: c236 0c3e 3b4e 3d3d 66e7 b73c 8960 363b
00000360: 3b4d 023d 6331 eabc 2ef2 7bbc 60f7 943d
00000370: 6f5d b73d fb87 87bc 6c62 83bc a226 ddbc
00000380: 6553 71bc 3b71 253c b3b2 91bc 0bc4 c73c
00000390: f994 3f3d 215d 4a3b 236e 07bd c7d8 2bbc
000003a0: a1f9 84bd 5dee 8eba 5743 a33c e425 49bd
000003b0: 5ebe 483b 5dc8 a4bc a1ff b7bc 2f56 1b3c
000003c0: 25c6 60bb 1432 cebc 5f4f df3b 6977 bdbd
000003d0: 7c47 bbbc e34f 41bd d536 5abd a02b f1bd
000003e0: 235b 1abe 8e48 d0bd 1ea0 eabd 9c27 a3bd
000003f0: 90e6 ffbd eaae cdbc 960e 60bd 809c 5bbd

conv1.bias f4 [64]
0.018810228 0.05120422 -0.0053025316 -0.081146 -0.007130866 0.0023942275 0.03817495 0.27838928
0.30940157 0.0025408063 -0.058413588 -0.020015014 0.028700432 -0.060248803 0.24866198 -0.050017133
0.3385 -0.11205429 -0.016290447 -0.18626626 0.033686623 -0.06428326 -0.016060332 0.18692586
-0.035962228 -0.049223308 0.05298214 -0.0016634708 -0.078826115 -0.10213654 -0.008389776 -0.18698819
-0.029792344 0.19425271 0.023828583 -0.05571892 0.015743371 -0.07412235 0.28164986 0.12821193
-0.13571125 -0.017715886 0.008326396 -0.06284639 -0.08215156 -0.002620463 -0.10691527 0.0040769447
0.0017619954 0.04426 -0.063220724 -0.0076563144 -0.02692748 0.1481174 0.094896056 0.104882106
-0.20164533 -0.0067439154 -0.06616174 -0.0016617979 -0.020295449 0.1699965 -0.202048 -0.07685597
00000000: e817 9a3c 84bb 513d dcc0 adbb e02f a6bd
00000010: 0aaa e9bb 79e8 1c3b 565d 1c3d 0a89 8e3e
00000020: e269 9e3e a883 263b 1643 6fbd 87f6 a3bc
00000030: 2b1d eb3c 73c7 76bd 3fa1 7e3e c4de 4cbd
00000040: df4f ad3e b87c e5bd 8b73 85bc 95bc 3ebe
00000050: fcfa 093d f1a6 83bd f590 83bc 7e69 3f3e
00000060: 214d 13bd 619e 49bd cd03 593d d108 daba
00000070: 966f a1bd f62c d1bd 4575 09bc d579 3fbe
00000080: 130f f4bc 2fea 463e 2934 c33c 8639 64bd
00000090: 3ef8 803c 75cd 97bd 6934 903e fd49 033e
000000a0: e4f7 0abe e820 91bc 706b 083c 9cb5 80bd
000000b0: 143f a8bd 13bc 2bbb 65f6 dabd e497 853b
000000c0: c1f2 e63a f949 353d de79 81bd d2e1 fabb
000000d0: 0597 dcbc 16ac 173e dd58 c23d 6ecc d63d
000000e0: 1d7c 4ebe 10fc dcbb ce7f 87bd afd0 d9ba
000000f0: a442 a6bc 9013 2e3e ace5 4ebe aa66 9dbd

hidden_layers.0.weight f4 [64, 64, 3, 3]
-0.13882709 -0.07190571 -0.021755902 0.01232134 -0.012637958 0.045161188 0.008896977 -0.0074819904
0.0013545546 -0.023719972 0.05180528 -0.04914112 0.12725972 0.2498037 -0.08130286 0.04703241
0.059585247 0.051674847 0.027178146 -0.015568307 -0.007095305 0.00070448406 0.0015437768 -0.0032316046
0.037591152 -0.010279245 0.0006552348 -0.009451017 -0.054596283 -0.061591685 0.071940295 0.063447036
-0.01659942 0.03803241 0.06085295 0.0150235165 -0.06051287 0.13415857 -0.010209712 0.047384024
-0.015660597 0.07570922 -0.042965483 0.014089479 -0.05200003 -0.15572539 0.041972786 0.052374553
-0.05459452 0.019637221 -0.04461847 -0.06862189 -0.05103173 0.016070576 0.05115254 -0.013558044
0.030459862 0.15940234 0.06961165 -0.029315542 0.094385415 0.0071984036 0.009922711 -0.18701704
0.002424995 0.027146129 -0.18292554 -0.03237482 0.04304122 -0.11032475 0.050657127 0.1793586
-0.12964974 0.15335888 0.06153515 -0.017807769 -0.05583251 -0.043337725 0.036185373 -0.020332098
0.018888647 0.0430417 0.06108601 0.15866946 0.058327418 0.037563033 -0.08225872 0.07560947
-0.009733852 -0.00882185 4.9267746e-05 0.041830406 -0.00306357 -0.010272195 0.0068380297 0.03336978
-0.014371009 -0.007385508 -0.01259409 0.0013732465 0.01706116 0.021524724 0.049277112 0.001940091
-0.009680856 0.010031573 0.058841243 -0.024588894 -0.077389725 -0.033257842 -0.17134097 -0.015975509
0.041274667 0.02024154 0.06077667 0.07591895 -0.03187226 -0.07176941 -0.033812184 0.039213542
-0.023888677 -0.05427961 0.019270463 -0.042477358 -0.058330454 0.014459857 -0.037319135 0.09348536
-0.0025308735 -0.22996879 0.17229837 0.096639276 -0.09186328 0.016643584 -0.10666974 0.013205585
-0.029106786 -0.012848942 0.019575099 -0.010724649 0.023883766 0.006797513 -0.011645366 -0.027293019
0.08332193 0.13791806 -0.068284616 0.12708402 0.049292702 -0.0068686265 0.16362831 0.06389622
0.06775267 -0.059185725 -0.037228294 -0.0051689986 -0.035842996 -0.022035532 -0.05460901 0.02008148
0.02641708 0.032713097 0.020051347 0.08698254 0.043063477 0.026059277 0.09360607 0.017984236
-0.0016702173 -0.0068294425 -0.029874299 -0.0027405163 0.04567671 -0.13871154 0.06316947 0.06067098
0.017330777 -0.050739974 0.012933495 -0.07604105 -0.022085957 0.12606807 -0.15501745 -0.046750166
0.17927139 -0.13479988 -0.014655068 0.10183775 -0.101966105 0.029405043 0.0062696016 0.016902057
-0.016739957 0.03862847 0.0010795938 -0.013533107 0.052640397 -0.0040920917 0.0073398575 0.003917581
0.019564226 -0.0288707 -0.0440032 -0.051891714 -0.0029637564 -0.041202117 0.006043773 -0.058481872
-0.085290276 0.08700787 -0.0002195589 -0.016711136 -0.07685489 0.07001947 0.07846289 0.0096740145
-0.034977227 -0.011849439 -0.02948364 -0.017474879 -0.027664138 -0.0438805 0.0032006616 -0.039901905
0.0024868995 -0.024533698 -0.05702833 0.03253246 -0.016163595 -0.0388298 -0.0445347 -0.07959155
0.035295505 0.1725154 0.068736546 0.08573123 -0.00080116163 -0.062102776 -0.06405635 -0.12813635
0.021964435 -0.05775592 0.012368754 0.03536829 -0.013128349 -0.027549123 0.031197494 0.010456953
0.013170611 0.02641596 0.018374369 0.030531991 -0.11381452 0.028082224 -0.028357737 -0.05649321
00000000: b028 0ebe 4d43 93bd 6f39 b2bc 72df 493c
00000010: 700f 4fbc f0fa 383d a0c4 113c 7c2b f5bb
00000020: 4f8b b13a 6350 c2bc c631 543d 3348 49bd
00000030: 5f50 023e 8bcc 7f3e 1d82 a6bd 0ea5 403d
00000040: a90f 743d 01a9 533d b4a4 de3c 3612 7fbc
00000050: bb7f e8bb 20ad 383a 8e58 ca3a 54c9 53bb
00000060: 2ef9 193d 476a 28bc 10c4 2b3a 70d8 1abc
00000070: 5aa0 5fbd 9047 7cbd 6f55 933d 85f0 813d
00000080: 82fb 87bc dfc7 1b3d f140 793d 3225 763c
00000090: 58dc 77bd dd60 093e a346 27bc c015 423d
000000a0: a74a 80bc 6f0d 9b3d 93fc 2fbd 8fd7 663c
000000b0: fcfd 54bd 7a76 1fbe a8eb 2b3d b386 563d
000000c0: 819e 5fbd 3dde a03c dbc1 36bd a289 8cbd
000000d0: a606 51bd 71a6 833c 5385 513d 8f22 5ebc
000000e0: f686 f93c 5e3a 233e 8e90 8e3d 2627 f0bc
000000f0: 244d c13d 96e0 eb3b de92 223c 6581 3fbe
00000100: aaec 1e3b 8f61 de3c d550 3bbe 769b 04bd
00000110: fe4b 303d f1f1 e1bd d97d 4f3d c8a9 373e
00000120: e7c2 04be 1c0a 1d3e 480c 7c3d 99e1 91bc
00000130: a1b0 64bd e682 31bd 1d37 143d 808f a6bc
00000140: 5dbc 9a3c 7e4c 303d 5335 7a3d 3f7a 223e
00000150: bbe8 6e3d b2db 193d 4377 a8bd 23d9 9a3d
00000160: bc7a 1fbc 8589 10bc d7a4 4e38 5c56 2b3d
00000170: 2dc6 48bb b54c 28bc 8d11 e03b c0ae 083d
00000180: 6174 6bbc 2202 f2bb 7157 4ebc 82fe b33a
00000190: d9c3 8b3c 9e54 b03c ccd6 493d a74a fe3a
000001a0: 749c 1ebc 775b 243c 8403 713d a66e c9bc
000001b0: 817e 9ebd 6039 08bd 0274 2fbe 12df 82bc
000001c0: a00f 293d 96d1 a53c f5f0 783d 657b 9b3d
000001d0: 7d8c 02bd d7fb 92bd a57e 0abd 619e 203d
000001e0: 30b2 c3bc 4c54 5ebd 17dd 9d3c bdfc 2dbd
000001f0: eaeb 6ebd 09e9 6c3c f3db 18bd 4175 bf3d
00000200: 03dd 25bb f07c 6bbe fc6e 303e d0ea c53d
00000210: d122 bcbd 2058 883c aa75 dabd 3d5c 583c
00000220: 5b71 eebc 5e84 52bc f55b a03c 70b6 2fbc
00000230: e3a7 c33c acbd de3b 35cc 3ebc 9c95 dfbc
00000240: b0a4 aa3d 643a 0d3e ced8 8bbd 5022 023e
00000250: 25e7 493d 3712 e1bb 2e8e 273e 05dc 823d
00000260: e9c1 8a3d bb6c 72bd b27c 18bd b460 a9bb
00000270: 1bd0 12bd dc83 b4bc b3ad 5fbd ea81 a43c
00000280: a268 d83c 2bfe 053d b942 a43c e723 b23d
00000290: 5463 303d 447a d53c 8ab4 bf3d ad53 933c
000002a0: 31eb daba 84c9 dfbb f2ba f4bc 3c9a 33bb
000002b0: 8017 3b3d 660a 0ebe ff5e 813d 2282 783d
000002c0: 46f9 8d3c b8d4 4fbd 03e7 533c 69bb 9bbd
000002d0: 9ced b4bc fd17 013e e5bc 1ebe 1a7d 3fbd
000002e0: eb92 373e fb08 0abe cf1b 70bc 4f90 d03d
000002f0: 9bd3 d0bd d8e2 f03c 3b71 cd3b 2f76 8a3c
00000300: 3c22 89bc e338 1e3d 2881 8d3a f7b9 5dbc
00000310: 759d 573d f416 86bb 3083 f03b 0d5f 803b
00000320: 2845 a03c 3f82 ecbc b33c 34bd 688c 54bd
00000330: 953b 42bb 8dc3 28bd d80a c63b b08a 6fbd
00000340: abac aebd 2f31 b23d 6539 66b9 cbe5 88bc
00000350: 1966 9dbd 5e66 8f3d 27b1 a03d c27f 1e3c
00000360: 4844 0fbd 2624 42bc ad87 f1bc 7a27 8fbc
00000370: e79f e2bc 0abc 33bd 31c2 513b 2e70 23bd
00000380: 40fb 223b e5fa c8bc 8a96 69bd c240 053d
00000390: 8469 84bc ff0b 1fbd 056a 36bd e500 a3bd
000003a0: 0592 103d e1a7 303e bfc5 8c3d db93 af3d
000003b0: 0c05 52ba 7b5f 7ebd fa2f 83bd 2d36 03be
000003c0: c2ee b33c 7991 6cbd 50a6 4a3c 57de 103d
000003d0: 4918 57bc b3ae e1bc e391 ff3c a453 2b3c
000003e0: 8cc9 573c 4966 d83c d885 963c 3a1e fa3c
000003f0: 9617 e9bd b10c e63c 7c4e e8bc 6d65 67bd

hidden_layers.0.bias f4 [64]
-0.29665062 -0.14943735 -0.018067487 0.010950602 0.0006336211 0.10239704 -0.19299035 -0.047735836
-0.014582789 -0.0400414 -0.44475013 -0.021523383 -0.029269196 0.0623297 0.0040032985 -0.07736767
0.070011 -0.13403939 -0.048893735 -0.015677236 -0.0061155283 0.0051194555 0.035896994 0.0674063
-0.12684783 -0.022995297 -0.07583665 -0.016066348 -0.035840325 -0.087748386 0.112676956 -0.1790372
-0.06352873 -0.23054701 0.067068465 -0.031886056 -0.13545945 0.11976066 -0.032597367 -0.0620628
-0.09241309 -0.039198615 -0.06902899 0.0032415413 -0.019557675 -0.019872066 -0.04991889 0.11148428
-0.023228338 -0.7732466 -0.02092919 -0.024615552 -0.011590148 1.1045694e-05 -0.04724351 0.038908742
-0.0042815595 -0.033057943 -0.024442418 -0.009481676 0.081192926 -0.00068335066 0.0120464675 -0.13105229
00000000: 97e2 97be 1b06 19be 4402 94bc 276a 333c
00000010: 9819 263a 8ab5 d13d 439f 45be a786 43bd
00000020: a6ec 6ebc 7302 24bd 4ab6 e3be ce51 b0bc
00000030: f4c5 efbc 6d4d 7f3d 1a2e 833b f172 9ebd
00000040: ed61 8f3d 9f41 09be cc44 48bd 8c6d 80bc
00000050: c564 c8bb 1bc1 a73b ba08 133d 500c 8a3d
00000060: 66e4 01be a260 bcbc 3f50 9bbd 939d 83bc
00000070: 4ecd 12bd 6db5 b3bd 2dc3 e63d 8755 37be
00000080: 5a1b 82bd 8414 6cbe 315b 893d f49a 02bd
00000090: e2b5 0abe 1445 f53d d184 05bd 9035 7ebd
000000a0: 1343 bdbd ba8e 20bd 125f 8dbd 0a70 543b
000000b0: 6b37 a0bc beca a2bc c077 4cbd df51 e43d
000000c0: 5b49 bebc 7df3 45bf b173 abbc 8ea6 c9bc
000000d0: 9be4 3dbc e550 3937 6982 41bd c65e 1f3d
000000e0: 534c 8cbb c467 07bd 773b c8bc 0859 1bbc
000000f0: 7a48 a63d e322 33ba 8c5e 453c 9232 06be

hidden_layers.1.weight f4 [64, 64, 3, 3]
0.11222302 -0.15250312 0.16932505 0.20247644 -0.34925914 -0.3948418 0.29889986 -0.0059103165
-0.205874 0.24115485 0.030317236 0.2893644 0.21457633 -0.23656522 -0.121956356 0.083507545
0.2941431 -0.074287966 -0.01511391 -0.062314335 -0.01546535 -0.043661762 -0.037846502 -0.08846955
-0.060066435 -0.052964207 -0.062094428 0.042871766 0.08147933 0.028806781 -0.041320734 -0.10293868
-0.13447219 0.011923353 0.15566055 0.002423939 0.03329824 -0.046581525 -0.035652526 0.07067972
0.10929028 0.058772203 -0.04204967 -0.0017775848 -0.00893741 0.02083067 0.019346276 0.042261142
0.022872124 -0.046504438 0.0015226345 -0.015480852 0.03291158 0.014438934 0.25926942 0.0906424
0.06536558 0.09038691 -0.081337914 -0.07427137 0.24268593 0.006713377 -0.09305338 -0.00905885
0.0242396 0.02913506 0.018583016 0.020588106 -0.014359829 0.0056645526 -0.0256447 0.013248905
-0.0037040347 -0.046199616 0.021314278 -0.013320513 -0.019365896 0.011898253 -0.0060038557 0.030412044
-0.041774765 0.08532986 0.051686764 0.0050505097 -0.09018747 -0.23778671 -0.08788083 -0.09411335
-0.17030957 0.018236138 -0.39340612 -0.20485295 0.08905999 0.026348721 -0.12746511 0.049813233
0.08642663 -0.08375338 -0.120979086 -0.045850523 -0.038760364 0.0135502275 0.008375992 -0.02057944
0.0042489953 -0.027991122 -0.0046147783 0.046078872 0.04925585 0.11916149 0.13626148 0.08094119
-0.05998189 -0.23947541 0.08768734 0.0768878 0.029246403 0.0253322 0.088020876 0.060631987
0.071933396 0.05119943 0.08412237 0.11039155 0.11211298 0.08338559 -0.008841236 -0.012740631
0.02488262 0.027573887 0.010368828 -0.027075846 -0.025407854 -0.043806646 -0.0011730724 -0.21801737
0.026017629 0.21875851 -0.10151552 -0.53133655 0.4192468 -0.0020680565 -0.4949399 0.31434226
-0.04771916 -0.017325714 0.03687657 0.08217415 -0.07198074 0.13990736 0.06270626 0.012027384
0.07197359 -0.123570964 -0.10993721 -0.03075482 -0.24036716 0.25969818 -0.19853266 -0.2403111
-0.16455138 -0.08479732 -0.032303587 0.02402321 -0.024268962 -0.019201979 -0.03093714 0.014867848
-0.0025685343 -0.013794619 -0.021772379 -0.10871999 -0.006295008 -0.00076618127 0.10201596 -0.02234756
-0.008826041 -0.06153159 -0.09450988 -0.044827797 -0.005037345 0.016685987 0.013168912 -0.017331861
-0.012786821 0.011809739 -0.021983635 -0.016336016 -0.038845766 0.063498855 0.14114769 -0.16323368
0.03211709 -0.06784883 0.050988127 -0.06064026 -0.07405691 0.037644915 -0.062875636 0.037967
0.09674053 -0.027395848 -0.1735551 0.040472154 -0.043388728 -0.056790337 0.07388826 0.07666089
0.05070235 -0.156558 0.11362507 -0.042589825 -0.033785082 0.078295045 0.03687719 -0.12998825
0.0036067143 -0.052002076 -0.05615527 0.00023085136 -0.04368145 -0.028733367 -0.07547915 -0.037566025
-0.022282423 -0.047246344 -0.046924498 0.00041883302 -0.0027483024 -0.002696895 0.0037711386 -0.01604027
0.015647393 -0.020589385 0.115565106 0.010027873 0.047956474 -0.102407016 -0.01831798 0.006354292
-0.025809567 -0.058568016 0.094378546 0.07499733 -0.013931095 -0.07844882 0.019245064 -0.03921722
-0.041434992 -0.02626561 0.020161858 0.013894892 0.020638088 -0.01256552 -0.015367438 -0.0057607363
00000000: 2fd5 e53d c729 1cbe 8c63 2d3e fc55 4f3e
00000010: 18d2 b2be b428 cabe 6709 993e 54ab c1bb
00000020: a2d0 52be 4cf1 763e da5b f83c 9227 943e
00000030: e6b9 5b3e 273e 72be 41c4 f9bd 0106 ab3d
00000040: ed99 963e 4a24 98bd 55a0 77bc 513d 7fbd
00000050: 6162 7dbc add6 32bd ef04 1bbd 862f b5bd
00000060: 3908 76bd fff0 58bd ba56 7ebd 4e9a 2f3d
00000070: a3de a63d 33fc eb3c ee3f 29bd 84d1 d2bd
00000080: 14b3 09be 2b5a 433c 7b65 1f3e f3da 1e3b
00000090: bc63 083d 45cc 3ebd 6208 12bd 87c0 903d
000000a0: 95d3 df3d 1fbb 703d 463c 2cbd d9fd e8ba
000000b0: 376e 12bc 15a5 aa3c 157c 9e3c 051a 2d3d
000000c0: 525e bb3c 707b 3ebd 2393 c73a 66a3 7dbc
000000d0: 4bce 063d 4791 6c3c f6be 843e b9a2 b93d
000000e0: 64de 853d c61c b93d 7e94 a6bd 971b 98bd
000000f0: a982 783e e3fb db3b c592 bebd 926b 14bc
00000100: 2092 c63c a6ac ee3c 693b 983c 63a8 a83c
00000110: 7d45 6bbc b69d b93b d514 d2bc ef11 593c
00000120: 64bf 72bb cf3b 3dbd 489b ae3c 483e 5abc
00000130: 3aa5 9ebc e4f0 423c febb c4bb ae22 f93c
00000140: 041c 2bbd 6cc1 ae3d 80b5 533d bf7e a53b
00000150: 35b4 b8bd 5c7e 73be ddfa b3bd 80be c0bd
00000160: a265 2ebe f463 953c 876c c9be f9c4 51be
00000170: 1665 b63d 46d9 d73c 3786 02be f608 4c3d
00000180: 7200 b13d e486 abbd e2c3 f7bd c2cd 3bbd
00000190: 30c3 1ebd c601 5e3c 753b 093c 3796 a8bc
000001a0: 283b 8b3b a34d e5bc 9137 97bb 33bd 3c3d
000001b0: 81c0 493d f00a f43d 2188 0b3e 7fc4 a53d
000001c0: 92af 75bd 0b39 75be 6c95 b33d 5a77 9d3d
000001d0: 2796 ef3c 7985 cf3c 4a44 b43d 3f59 783d
000001e0: d151 933d 7eb6 513d 5948 ac3d f714 e23d
000001f0: 7d9b e53d 10c6 aa3d d5da 10bc 14be 50bc
00000200: a3d6 cb3c a2e2 e13c 04e2 293c 2ace ddbc
00000210: 2224 d0bc 996e 33bd c7c1 99ba f23f 5fbe
00000220: ec22 d53c 3b02 603e 5ee7 cfbd ac05 08bf
00000230: 84a7 d63e 3b88 07bb c368 fdbe 78f1 a03e
00000240: 2a75 43bd a8ee 8dbc e30b 173d ec4a a83d
00000250: a36a 93bd e043 0f3e 246c 803d 810e 453c
00000260: e466 933d c612 fdbd c326 e1bd 88f1 fbbc
00000270: cf22 76be 29f7 843e 254c 4bbe 1d14 76be
00000280: 2880 28be 38aa adbd c450 04bd 53cc c43c
00000290: b4cf c6bc 784d 9dbc e36f fdbc 4698 733c
000002a0: db54 28bb d302 62bc fd5b b2bc 96a8 debd
000002b0: 5b46 cebb 8ed9 48ba beed d03d 3b12 b7bc
000002c0: 199b 10bc 8c08 7cbd 658e c1bd 5a9d 37bd
000002d0: 5010 a5bb 0db1 883c 6cc2 573c 8cfb 8dbc
000002e0: d17f 51bc a37d 413c 0617 b4bc 1cd3 85bc
000002f0: bd1c 1fbd b00b 823d 0589 103e bb26 27be
00000300: 368d 033d 54f4 8abd edd8 503d ec61 78bd
00000310: 26ab 97bd 8e31 1a3d f1c4 80bd 4983 1b3d
00000320: e61f c63d 426d e0bc 6eb8 31be 21c6 253d
00000330: 61b8 31bd fc9c 68bd ba52 973d 6200 9d3d
00000340: 44ad 4f3d be50 20be 43b4 e83d ab72 2ebd
00000350: 3a62 0abd 2759 a03d 890c 173d a41b 05be
00000360: a05e 6c3b 2100 55bd 1203 66bd b110 7239
00000370: 52eb 32bd 3d62 ebbc d094 9abd d5de 19bd
00000380: a189 b6bc 6285 41bd e733 40bd d196 db39
00000390: dd1c 34bb 64be 30bb 3525 773b e266 83bc
000003a0: f62e 803c 12ab a8bc 66ad ec3d f34b 243c
000003b0: 026e 443d c5ba d1bd 970f 96bc aa37 d03b
000003c0: 966e d3bc 04e5 6fbd 8a49 c13d 3398 993d
000003d0: 3f3f 64bc c6a9 a0bd d3a7 9d3c 3ca2 20bd
000003e0: bdb7 29bd fa2a d7bc 7b2a a53c 67a7 633c
000003f0: 3511 a93c 9cdf 4dbc b5c7 7bbc 8fc4 bcbb

hidden_layers.1.bias f4 [64]
0.074906275 0.040798087 -0.076728635 -0.04631579 0.006168939 -0.53721666 -0.033553164 -0.24697803
-0.0027895868 -0.1074239 0.047153883 0.05187361 0.006161819 -0.21300961 -0.014240505 -0.50900155
0.02765614 0.014807722 -0.015755164 -0.018336192 -0.061885368 -0.025037704 -0.012163257 -0.043609023
-0.034686454 0.08741987 -0.021320479 -0.07085106 -0.15236585 -0.1396218 -0.0145679405 0.00035606403
0.045516837 -0.026720202 0.009413393 -0.12866914 -0.16358945 -0.062457513 0.06759848 -0.06382542
-0.05246209 -0.019851878 -0.048107535 -0.10195003 0.2090231 -0.033404402 -0.047513098 0.009761078
0.057838846 -0.02013019 0.051954705 0.0046746815 -0.07175803 -0.050720703 0.004367499 -0.02819289
-0.018394941 0.056810167 -0.039990626 -0.071634315 -0.0013729521 -0.025954062 -0.07631711 0.010746994
00000000: 7668 993d e51b 273d e723 9dbd a0b5 3dbd
00000010: d024 ca3b 0887 09bf 0b6f 09bd cfe7 7cbe
00000020: 80d1 36bb 1001 dcbd 6e24 413d 6c79 543d
00000030: 16e9 c93b 311f 5abe 0251 69bc ed4d 02bf
00000040: 218f e23c 169c 723c f910 81bc c835 96bc
00000050: 837b 7dbd df1b cdbc 6648 47bc 609f 32bd
00000060: 6213 0ebd 3009 b33d 49a8 aebc 5c1a 91bd
00000070: cb05 1cbe 04f9 0ebe 5fae 6ebc 1bae ba39
00000080: dd6f 3a3d 53e4 dabc a23a 1a3c d8c1 03be
00000090: fe83 27be 73d3 7fbd 1271 8a3d e7b6 82bd
000000a0: 7de2 56bd 68a0 a2bc 680c 45bd 2dcb d0bd
000000b0: 270a 563e 0ed3 08bd 189d 42bd eeec 1f3c
000000c0: 6de8 6c3d 11e8 a4bc 75ce 543d 122e 993b
000000d0: e0f5 92bd 83c0 4fbd 3d1d 8f3b c7f4 e6bc
000000e0: fdb0 96bc c7b1 683d 36cd 23bd 03b5 92bd
000000f0: a1f4 b3ba 9d9d d4bc 254c 9cbd 2914 303c

hidden_layers.2.weight f4 [64, 64, 3, 3]
-0.007866908 0.02707894 0.09088951 0.088642314 -0.048243336 -0.085328564 0.082418695 -0.14728571
0.016283575 0.0060443827 0.005311552 -0.036484648 -0.008085938 -0.088576406 -0.13179314 -0.022421945
0.058703847 0.04202704 0.044249304 0.006527249 0.030619321 -0.059372403 0.023581378 0.3363038
0.19891329 -0.04940969 0.053952772 0.00070857495 -0.012184842 0.03834373 0.004817199 0.03551218
-0.022929309 -0.01681521 0.01637044 -0.034822322 -0.0008297362 0.17911723 0.16349229 -0.018050523
-0.019491391 -0.09498844 -0.17657945 -0.07055888 0.002416804 -0.05608943 -0.10107305 0.10501595
0.00373659 -0.049562156 0.070327535 -0.20466675 0.15956253 0.1238393 -0.018841196 0.016772123
-0.02780007 0.016426943 -0.032134533 -0.005193926 -0.018390378 -0.02494838 0.032287106 0.01742552
-0.03382147 -0.10277332 0.088955805 0.07987249 0.0165964 0.09872775 -0.084819674 -0.23128349
0.0060635046 0.038984463 0.019284677 -0.06956585 0.061842054 0.12585257 -0.068939224 -0.09152087
0.024313593 -0.011692922 0.032328155 0.042815667 -0.038674697 -0.048131336 0.0413973 -0.045429066
0.021730414 0.0015669168 -0.13894907 -0.034949362 0.04251004 0.08036752 0.019969936 -0.013862405
0.055522952 -0.023313234 -0.029394839 0.014968927 -0.11158422 0.11732106 0.08025819 -0.04872019
0.20303859 -0.100981906 -0.22083214 0.018674865 -0.16290507 -0.15999977 -0.04208028 0.0061820364
-0.025028434 -0.042432368 0.13796064 0.0902279 0.0062465984 0.009175444 -0.08102222 0.03752836
0.103145264 -0.023052435 0.06023513 -0.06363537 -0.02930778 0.024231624 0.11039884 0.1745142
-0.06621853 -0.008776664 0.067391746 0.085684106 0.2717744 -0.09873828 -0.031733133 -0.053020258
-0.1654523 0.0013325189 0.01750359 -0.052024227 0.14711139 -0.047159355 -0.0013609222 -0.012128468
-0.068955384 -0.004544182 -0.11786168 0.021602543 0.15895694 0.056798056 -0.049431145 -0.015062244
-0.12754236 -0.21726632 0.12940145 0.037193052 -0.059295516 -0.0923518 -0.2598605 -0.0067732474
0.023735445 -0.022183781 0.021986796 -0.020987729 -0.03538956 0.02240164 -0.019056223 -0.035285726
0.03337196 0.042764246 0.029460996 -0.294296 0.12675028 -0.21609652 0.16362417 0.2562888
0.23146419 0.24111046 -0.113407634 0.016417032 0.044774972 0.065162614 0.20695244 -0.14150181
-0.29796642 -0.34878257 -0.06400383 -0.019677028 0.04899567 -0.01852043 -0.018527802 0.026423369
-0.024851525 -0.0249331 0.035827074 -0.031765636 -0.003639816 -0.007351619 -0.13445757 0.005364816
-0.034401894 0.030035991 0.0029924505 0.12490413 -0.09502255 0.023010926 -0.05311451 0.24671796
0.02481775 -0.15060058 0.0021305906 0.027767824 0.0736853 0.012787018 0.047281988 0.06123103
-0.09950915 -0.013061728 0.0012899025 -0.18532437 0.11972374 -0.29752883 -0.113317035 -0.112976395
-0.3079639 -0.027676659 -0.23115529 0.27322453 0.006843362 -0.14346261 -0.049849305 0.21115977
-0.09605207 0.20842229 -0.020006696 0.011995597 0.02550546 0.028507289 -0.0063976324 0.02906191
0.0045953677 -0.02335882 0.027044954 0.027705496 0.017067522 -0.054150365 -0.023110872 0.012599616
0.01971014 0.021448134 -0.023233194 -0.031568218 0.0056810183 0.011784623 -0.035400257 -0.07660771
00000000: 34e4 00bc a7d4 dd3c 4824 ba3d 1a8a b53d
00000010: ce9a 45bd bec0 aebd 22cb a83d 11d2 16be
00000020: 2265 853c f50f c63b 870c ae3b ed70 15bd
00000030: e27a 04bc 8c67 b5bd c8f4 06be 3aae b7bc
00000040: 7273 703d 8c24 2c3d c23e 353d 88e2 d53b
00000050: 5fd5 fa3c 7a30 73bd bc2d c13c 0330 ac3e
00000060: edaf 4b3e d161 4abd 95fd 5c3d a9bf 393a
00000070: eea2 47bc 510e 1d3d 98d9 9d3b 3875 113d
00000080: 3fd6 bbbc 0dc0 89bc 4d1b 863c daa1 0ebd
00000090: a782 59ba 826a 373e 866a 273e b1de 93bc
000000a0: 69ac 9fbc 4d89 c2bd 3ed1 34be 2d81 90bd
000000b0: 3e63 1e3b 08be 65bd 63ff cebd 9a12 d73d
000000c0: 94e1 743b b001 4bbd e207 903d 2994 51be
000000d0: 5c64 233e 759f fd3d da58 9abc b165 893c
000000e0: f9bc e3bc cc91 863c 809f 03bd cf31 aabb
000000f0: 6ba7 96bc 8c60 ccbc 7c3f 043d f7bf 8e3c
00000100: 6288 0abd d27a d2bd 762e b63d 3094 a33d
00000110: 2cf5 873c c631 ca3d f0b5 adbd 94d5 6cbe
00000120: 5db0 c63b 2cae 1f3d e6fa 9d3c 8a78 8ebd
00000130: 184e 7d3d 7fdf 003e 0230 8dbd 4b6f bbbd
00000140: 4d2d c73c ab93 3fbc 876a 043d 7b5f 2f3d
00000150: 5c69 1ebd 5d25 45bd 3790 293d d413 3abd
00000160: fb03 b23c 0161 cd3a aa48 0ebe 1027 0fbd
00000170: 021f 2e3d ba97 a43d fe97 a33c 241f 63bc
00000180: 096c 633d 65fb bebc 72cd f0bc 3b40 753c
00000190: 4486 e4bd 0646 f03d 685e a43d d28e 47bd
000001a0: 59e9 4f3e 9acf cebd d221 62be 08fc 983c
000001b0: 96d0 26be fbd6 23be 5f5c 2cbd ae92 ca3b
000001c0: 6e08 cdbc 90cd 2dbd 8e45 0d3e 68c9 b83d
000001d0: 44b0 cc3b 9a54 163c faee a5bd 56b7 193d
000001e0: d33d d33d 76d8 bcbc 1db9 763d 4353 82bd
000001f0: df16 f0bc 6681 c63c c918 e23d dab3 323e
00000200: 959d 87bd ffcb 0fbc af04 8a3d 267b af3d
00000210: 0426 8b3e 4c37 cabd 9afa 01bd c52b 59bd
00000220: 546c 29be eaa7 ae3a b063 8f3c 5b17 55bd
00000230: 5ea4 163e 2b2a 41bd f960 b2ba 7bb6 46bc
00000240: 7b38 8dbd 5de7 94bb 7761 f1bd d1f7 b03c
00000250: 9cc5 223e 14a5 683d 5078 4abd a1c7 76bc
00000260: 779a 02be 107b 5ebe d081 043e be57 183d
00000270: dbdf 72bd f122 bdbd 6f0c 85be 1ef2 ddbb
00000280: d670 c23c c3ba b5bc a71d b43c 75ee abbc
00000290: a5f4 10bd a583 b73c cc1b 9cbc c487 10bd
000002a0: 09b1 083d 9029 2f3d 3058 f13c f7ad 96be
000002b0: d3ca 013e 6848 5dbe 188d 273e 4938 833e
000002c0: f304 6d3e a9e5 763e 4342 e8bd 037d 863c
000002d0: f665 373d fa73 853d 57eb 533e dae5 10be
000002e0: 0e8f 98be a193 b2be 7114 83bd b831 a1bc
000002f0: afaf 483d 28b8 97bc 9ec7 97bc d275 d83c
00000300: 6d95 cbbc 8040 ccbc 69bf 123d af1c 02bd
00000310: fb89 6ebb dae5 f0bb 3faf 09be 57cb af3b
00000320: 00e9 0cbd 0a0e f63c fd1c 443b bdcd ff3d
00000330: 2f9b c2bd 6981 bc3c 9a8e 59bd a2a3 7c3e
00000340: 984e cb3c 0a37 1abe 61a1 0b3b 5979 e33c
00000350: 52e8 963d a480 513c c2aa 413d 63cd 7a3d
00000360: 74cb cbbd dc00 56bc f211 a93a acc5 3dbe
00000370: b831 f53d b355 98be c312 e8bd 2b60 e7bd
00000380: 72ad 9dbe 29ba e2bc f9b3 6cbe 16e4 8b3e
00000390: 483e e03b dde7 12be c92e 4cbd 443a 583e
000003a0: f3b6 c4bd a76c 553e 15e5 a3bc 2e89 443c
000003b0: d4f0 d03c 1e88 e93c 3ba3 d1bb 3e13 ee3c
000003c0: bd94 963b ff5a bfbc 618d dd3c a3f6 e23c
000003d0: 30d1 8b3c c6cc 5dbd 0353 bdbc 9f6e 4e3c
000003e0: 2977 a13c ffb3 af3c 8a53 bebc ad4d 01bd
000003f0: d627 ba3b 4b14 413c dcff 10bd 81e4 9cbd

hidden_layers.2.bias f4 [64]
-0.08650465 0.058107812 -0.018640773 -0.11075252 -0.09705608 -0.020859033 0.01180226 -0.092653416
0.012702021 -0.023957761 0.095328964 -0.030112442 -0.037350263 -0.09623737 0.054388173 0.005003759
0.14861126 0.055739157 -0.015821869 0.023741938 -0.056001037 0.058124915 0.13943411 -0.03384528
-0.11432686 -0.025366224 -0.020917967 -0.048484955 0.018935164 -0.006133684 0.10814726 -0.025266545
-0.06824586 0.053613782 0.051871058 -0.06338499 0.075676866 -0.050324127 -0.03870337 0.013030121
-0.05752831 -0.0026718944 -0.005991345 -0.06186313 -0.03615167 0.01311532 -0.022503883 0.045974508
-0.07882873 -0.010886408 -0.016152238 0.0064170505 -0.01116924 0.026615456 0.028706416 -0.056044236
-0.01815603 -0.047830522 -0.031843103 -0.074792415 -0.5370648 -0.09343114 0.056262486 -0.08643776
00000000: 5a29 b1bd 7502 6e3d 89b4 98bc 38d2 e2bd
00000010: 57c5 c6bd 90e0 aabc 445e 413c 13c1 bdbd
00000020: 231c 503c 1143 c4bc d53b c33d 5eae f6bc
00000030: 97fc 18bd 1918 c5bd 22c6 5e3d 93f6 a33b
00000040: 8d2d 183e be4e 643d dd9c 81bc 747e c23c
00000050: 5861 65bd 6414 6e3d d1c7 0e3e 59a1 0abd
00000060: 3324 eabd d4cc cfbc 285c abbc 2998 46bd
00000070: eb1d 9b3c 12fd c8bb 507c dd3d c9fb cebc
00000080: 7cc4 8bbd 209a 5b3d bf76 543d fdcf 81bd
00000090: 79fc 9a3d ac20 4ebd 6d87 1ebd 4a7c 553c
000000a0: cea2 6bbd f31a 2fbb 0b53 c4bb 3264 7dbd
000000b0: c613 14bd a4e1 563c 105a b8bc c44f 3c3d
000000c0: f570 a1bd e85c 32bc b351 84bc 1f46 d23b
000000d0: 30ff 36bc a808 da3c b829 eb3c a48e 65bd
000000e0: f4bb 94bc f0e9 43bd ea6d 02bd c42c 99bd
000000f0: 147d 09bf d358 bfbd 7e73 663d 4806 b1bd

hidden_layers.3.weight f4 [64, 64, 3, 3]
-0.12952216 -0.117094226 -0.15890595 -0.009754208 -0.025306262 -0.07923518 0.06714635 -0.017021546
-0.038919616 -0.13551036 0.017304216 0.024490729 -0.032581966 0.03408192 -0.085567504 0.0026904615
0.044137593 0.026824841 0.039383642 0.015024042 -0.014586443 0.0058908267 -0.019491646 0.0045726616
-0.035678077 -0.022954838 -0.00040989037 0.084338576 0.1244521 -0.022789259 -0.106549524 0.036606263
-0.11090859 -0.04479112 0.0017723225 0.08629526 0.0647585 -0.0047135777 -0.020541864 -0.11731219
-0.118180886 0.026879475 0.049143855 -0.04835992 0.031860795 -0.0004098303 0.06472408 -0.01656053
0.028833851 0.02922601 0.038742065 -0.07897898 -0.01714666 -0.060752664 0.14197415 0.12909822
0.07399713 0.0285264 -0.14881983 -0.018994471 -0.0060847555 -0.119830035 0.046956602 0.0003940691
0.08659586 0.010567868 0.021212574 0.020535326 -0.06288505 -0.15323292 -0.051905107 -0.019608444
-0.026948309 -0.030688178 0.009785101 -0.029240998 0.025928734 -0.0010608968 0.02034285 0.015742082
-0.008980726 0.041841596 0.0050652106 0.046766624 0.038114756 -0.002642026 -0.02614589 0.01598758
-0.03509696 -0.012267662 0.24328673 -0.11643586 0.19787523 -0.13615957 -0.023361394 0.023877636
0.106053814 0.11521496 0.07029249 -0.01774078 0.0011624141 -0.02193077 -0.0032005978 -0.0008074925
-0.026465015 0.026316736 -0.0077888183 0.017594688 0.07091618 0.18938889 -0.009904474 -0.06928619
-0.056165136 -0.11932727 0.08917918 -0.040529765 0.008763492 -0.065504044 0.032722663 -0.018137855
-0.034676023 -0.05428826 -0.05033977 0.12021151 -0.06900427 0.1223559 0.079362795 0.10982814
-0.042680554 -0.08126352 0.116930224 0.08975465 -0.14036272 0.020621661 -0.04683963 -0.050360665
0.008766924 0.12492102 0.0130648 -0.09609484 -0.09343986 0.008018556 -0.20189692 0.07819836
0.099731766 -0.13777934 -0.021057004 0.013224962 0.023270873 0.008307462 0.007553269 0.052828517
-0.08185777 0.10036534 0.04443082 0.13191386 -0.12506141 -0.095377065 -0.0051499195 -0.3665395
0.40312073 -0.08061201 0.035571013 0.008001795 0.050018754 0.011284408 -0.021141157 0.017411077
0.028312108 0.020383907 0.031787578 0.1075887 0.04358728 -0.035727862 -0.11218377 -0.053451482
0.15521921 0.06398317 -0.010493824 -0.13354586 0.07922702 -0.002152459 -0.05947995 -0.063887045
0.12283728 0.1187677 0.051267117 -0.07521423 0.057067446 -0.037250865 -0.01632949 0.11521309
0.003456154 0.032726694 -0.041008342 -0.018457785 0.046896257 -0.05476444 0.16694736 0.24788778
0.11774858 0.06731139 0.07838471 0.03806074 0.05460296 -0.08975713 0.033188198 0.006154781
0.003756359 0.021471445 0.045943752 0.01884313 -0.016201405 0.0404571 0.01669274 -0.008417682
-0.15795924 -0.11441937 -0.1630785 -0.105447434 -0.07632904 -0.074806646 -0.1320332 -0.12303071
-0.021751352 -0.143534 -0.14963228 -0.21615024 0.04398903 -0.017626993 -0.03891919 0.020441346
-0.07695095 0.022694098 0.06904798 0.03713346 0.0419959 -0.01788406 0.052495867 0.029921798
0.027845807 0.06886027 0.023704145 -0.039412517 -0.05787953 -0.09743045 -0.04397168 0.0027693608
-0.051689077 0.033482 -0.022966174 0.00686988 -0.2468571 -0.09310161 -0.13877007 -0.07236331
00000000: 75a1 04be 19cf efbd 3eb8 22be 1dd0 1fbc
00000010: 144f cfbc 0e46 a2bd 0784 893d c570 8bbc
00000020: 2d6a 1fbd 3ac3 0abe 92c1 8d3c c8a0 c83c
00000030: ab74 05bd 7c99 0b3d 043e afbd 7452 303b
00000040: 9fc9 343d c5bf db3c be50 213d 6627 763c
00000050: fafb 6ebc d607 c13b f2ac 9fbc 44d6 953b
00000060: 2d23 12bd c90b bcbc 8ee6 d6b9 b4b9 ac3d
00000070: bee0 fe3d 8ab0 babc a336 dabd 73f0 153d
00000080: 0b24 e3bd e576 37bd 464d e83a 92bb b03d
00000090: 1ba0 843d 5b74 9abb 6947 a8bc 6041 f0bd
000000a0: d208 f2bd 5832 dc3c 114b 493d 0d15 46bd
000000b0: 7780 023d 7ede d6b9 0f8e 843d f3a9 87bc
000000c0: f834 ec3c 636b ef3c 00b0 1e3d bbbf a1bd
000000d0: 2777 8cbc c9d7 78bd ac61 113e 5332 043e
000000e0: cf8b 973d 32b0 e93c 3a64 18be 4b9a 9bbc
000000f0: a162 c7bb 7369 f5bd 9155 403d 0f9b ce39
00000100: 2c59 b13d da24 2d3c fec5 ad3c b339 a83c
00000110: e1c9 80bd 17e9 1cbe 739a 54bd e3a1 a0bc
00000120: b3c2 dcbc c665 fbbc b051 203c d18a efbc
00000130: 7f68 d43c ca0d 8bba 0ca6 a63c 8af5 803c
00000140: e523 13bc 1862 2b3d 11fa a53b 5c8e 3f3d
00000150: 381e 1c3d d725 2dbb e82f d6bc 63f8 823c
00000160: d4c1 0fbd 4efe 48bc 2820 793e ed75 eebd
00000170: ce9f 4a3e 6a6d 0bbe 6560 bfbc 089b c33c
00000180: be32 d93d d2f5 eb3d 82f5 8f3d 1d55 91bc
00000190: 255c 983a 28a8 b3bc 1fc1 51bb e8ad 53ba
000001a0: 29cd d8bc 3296 d73c 5839 ffbb bc22 903c
000001b0: 813c 913d 29ef 413e 6046 22bc ebe5 8dbd
000001c0: 6a0d 66bd db61 f4bd 93a3 b63d 8a02 26bd
000001d0: c094 0f3c fc26 86bd 3308 063d d795 94bc
000001e0: 7208 0ebd 5e5d 5ebd 1331 4ebd 7431 f63d
000001f0: 1c52 8dbd bb95 fa3d f688 a23d 93ed e03d
00000200: ced1 2ebd 7d6d a6bd 1d79 ef3d 49d1 b73d
00000210: 3fbb 0fbe c2ee a83c e9da 3fbd fc46 4ebd
00000220: 25a3 0f3c 97d6 ff3d be0d 563c 5fcd c4bd
00000230: 665d bfbd 4360 033c 11be 4ebe 7626 a03d
00000240: 2b40 cc3d 0716 0dbe bd7f acbc 83ad 583c
00000250: 8fa2 be3c 051c 083c 6a81 f73b b762 583d
00000260: 0ca5 a7bd 588c cd3d 17fd 353d 6d14 073e
00000270: 1910 00be 0d55 c3bd a8c0 a8bb 11ab bbbe
00000280: d765 ce3e e917 a5bd e9b2 113d f619 033c
00000290: 77e0 4c3d 3de2 383c 3830 adbc ada1 8e3c
000002a0: cbee e73c 27fc a63c b133 023d 7757 dc3d
000002b0: 9388 323d 6157 12bd 9bc0 e5bd f1ef 5abd
000002c0: c9f1 1e3e 9c09 833d 4aee 2bbc 3fc0 08be
000002d0: c741 a23d 4510 0dbb 40a1 73bd 36d7 82bd
000002e0: 1d92 fb3d 7b3c f33d 78fd 513d eb09 9abd
000002f0: 8ebf 693d 5d94 18bd 6cc5 85bc d7f4 eb3d
00000300: a480 623b 6d0c 063d 5df8 27bd c834 97bc
00000310: 4a16 403d ad50 60bd 40f4 2a3e 4bd6 7d3e
00000320: 2b26 f13d 8eda 893d 2a88 a03d 94e5 1b3d
00000330: 5aa7 5f3d 96d2 b7bd 59f0 073d 0cae c93b
00000340: 3f2d 763b e2e4 af3c 842f 3c3d e85c 9a3c
00000350: cfb8 84bc 58b6 253d 37bf 883c 51ea 09bc
00000360: 11c0 21be b454 eabd 0dfe 26be d3f4 d7bd
00000370: 6652 9cbd 3a34 99bd b633 07be 86f7 fbbd
00000380: e42f b2bc 94fa 12be 3439 19be 7d56 5dbe
00000390: d72d 343d 7c66 90bc bb69 1fbd 9c74 a73c
000003a0: 7698 9dbd f9e8 b93c 0769 8d3d 4119 183d
000003b0: e503 2c3d 9881 92bc e805 573d 8f1e f53c
000003c0: e41c e43c 9d06 8d3d 322f c23c 056f 21bd
000003d0: 1613 6dbd 9e89 c7bd a61b 34bd 2a7e 353b
000003e0: edb7 53bd 6c24 093d 8f23 bcbc bb1c e13b
000003f0: 1cc8 7cbe 0fac bebd be19 0ebe 3733 94bd

hidden_layers.3.bias f4 [64]
0.00060745503 -0.00012431119 -0.046172578 -0.015904235 -0.050707854 0.16710693 -0.07782383 0.20751639
-0.024396304 0.021362733 0.07218407 0.0714853 -0.046067756 -0.024708388 0.0028378174 0.065825574
-0.117056996 -0.05667974 -0.011690005 -0.012791508 0.05440226 -0.0016286033 0.08522842 0.003944381
0.004084491 -0.090922765 -0.014934753 -0.016046876 0.115874685 0.00865437 -0.052131455 -0.023593104
-0.005267194 -0.05240293 -0.0046901032 0.02494716 -0.043896496 -0.03160298 -0.04194418 0.016894966
-0.0349361 -0.043553647 0.010787318 -0.014440833 -0.059190962 -0.031608544 -0.046754062 -0.048636705
0.0052175107 0.06565576 -0.07949407 -0.049200077 -0.06659647 -0.04521363 -0.041723084 -0.09677846
-0.033941202 0.025633786 0.075702384 -0.035360456 -0.041501302 -0.057659995 -0.055972785 0.21569686
00000000: 9e3d 1f3a 8859 02b9 751f 3dbd 9949 82bc
00000010: 0ab3 4fbd 141e 2b3e 1a62 9fbd 2d7f 543e
00000020: c2da c7bc e600 af3c 3ed5 933d e366 923d
00000030: 8bb1 3cbd 3f69 cabc adfa 393b 8fcf 863d
00000040: 94bb efbd 0429 68bd 6f87 3fbc 7993 51bc
00000050: e7d4 5e3d dc76 d5ba 3d8c ae3d de3f 813b
00000060: 32d7 853b b735 babd e5b0 74bc bd74 83bc
00000070: b54f ed3d 0fcb 0d3c cb87 55bd 5346 c1bc
00000080: 6d98 acbb 74a4 56bd 70af 99bb fd5d cc3c
00000090: d0cc 33bd 2072 01bd a9cd 2bbd 5067 8a3c
000000a0: 2819 0fbd 4f65 32bd 4bbd 303c 3e99 6cbc
000000b0: 3972 72bd f677 01bd 3081 3fbd 4837 47bd
000000c0: a7f7 aa3b 8776 863d c9cd a2bd 0586 49bd
000000d0: bb63 88bd ed31 39bd d3e5 2abd c933 c6bd
000000e0: ee05 0bbd f2fd d13c da09 9b3d 20d6 10bd
000000f0: 45fd 29bd e32c 6cbd b843 65bd a3df 5c3e

hidden_layers.4.weight f4 [64, 64, 3, 3]
0.06320691 0.013498824 -0.13060282 -0.15231262 -0.015181895 -0.06276035 -0.25198287 0.15773241
-0.042932972 -0.40327895 -0.0023333982 -0.0060808463 -0.16296442 0.039626054 0.014051322 0.14497761
-0.2018028 -0.20245701 0.016999418 0.270755 0.14309114 -0.14707993 0.03849048 0.059698906
-0.34977433 -0.026179632 0.16400969 0.0042143264 -0.039376218 -0.021115059 0.06932996 -0.03344719
-0.20530564 0.113154285 0.04341459 0.07742079 -0.058348965 0.06577487 -0.10828372 0.31806463
0.023475114 0.17977014 0.15713683 -0.1789469 0.14015713 -0.58642185 0.01606095 -0.4274936
-0.3236696 0.15112473 -0.3226463 -0.2293918 0.06270843 -0.21697332 -0.035414364 0.028338786
0.044491816 -0.030693626 -0.031466033 0.0048507876 -0.0751436 0.0008251212 0.014755515 -0.04512121
0.1639288 -0.09713147 0.038301438 -0.045601267 -0.14458595 0.13497095 0.17827646 0.079382315
0.121076785 0.16650434 -0.016131116 0.096347615 0.02802433 -0.010821133 0.28369865 0.015968442
-0.024943892 0.06892901 -0.017874049 0.06567756 0.17096724 0.009722921 0.03379246 0.14282739
-0.26448563 0.2820103 -0.10638229 0.17933144 -0.21527416 0.010834969 -0.007794464 -0.17941777
0.08504837 -0.021418119 -0.27840608 -0.026789453 -0.096830465 0.06573782 0.21614878 -0.08147421
-0.001016879 0.06671637 -0.089927286 -0.0018909861 0.03508011 -0.4050651 0.07917236 -0.06000328
-0.17850216 0.12751795 0.17805308 0.16791429 -0.02684228 0.03860696 -0.020751206 -0.062048648
-0.027165009 -0.18057297 -0.074861296 -0.118281335 -0.1667517 -0.025497736 -0.0318846 0.015163031
-0.0035695266 -0.045416474 -0.0058538844 -0.0073663215 0.027984405 0.034489237 0.018093705 0.0150159085
0.00046369008 0.042266086 0.06722077 -0.06677122 -0.041124124 0.089480065 0.0074348925 -0.01992287
0.48582077 -0.20105712 -0.14618766 0.06579733 -0.07990126 -0.20410158 -0.14707643 -0.24102227
-0.14943199 0.084485576 -0.3255053 0.15087125 0.0976765 -0.052151535 -0.023986798 0.08174402
0.09002199 -0.0057784053 -0.010922742 -0.012578862 -0.007158638 0.030463193 0.0144972475 -0.02071001
0.011434449 0.0086787855 -0.042452436 0.11276599 -0.20613348 -0.13906926 0.0942304 -0.20952897
-0.17934193 0.0795787 -0.041350383 -0.029885922 0.16273789 -0.124595195 0.20801549 0.19554493
-0.04895437 0.09881661 -0.32243028 -0.034863632 -0.038369153 -0.008586706 0.018256364 0.10464496
-0.05152775 -0.040315818 0.057090525 -0.053021252 -0.0847265 -0.04968379 -0.085804544 -0.2552751
0.13405606 -0.27050102 -0.052181408 0.04296798 0.002207051 0.37522236 -0.18765701 0.15311688
-0.0033501047 0.02979355 -0.013470521 0.070136935 -0.10062687 -0.041058447 -0.14625081 -0.12875077
-0.071642846 0.0118245045 -0.06523877 -0.038151897 -0.09791053 -0.06716932 -0.15494269 -0.08058426
-0.08220805 0.21519865 -0.3776166 0.3869366 0.21949421 -0.102224275 0.21441184 0.31336918
0.0003019093 -0.021475947 0.0055664764 0.03357316 -0.010974946 0.033630513 -0.0030982818 -0.012890189
-0.007586294 0.030535242 0.032966115 0.49500814 -0.08644836 0.056229938 -0.12734015 -0.19986403
-0.1504208 -0.16903403 -0.3087403 -0.21872067 0.034243073 -0.20777185 -0.05802366 -0.23508446
00000000: a072 813d 2c2a 5d3c bfbc 05be d7f7 1bbe
00000010: 7cbd 78bc 8088 80bd e603 81be 9b84 213e
00000020: 7cda 2fbd 947a cebe edeb 18bb d641 c7bb
00000030: 25e0 26be ee4e 223d 8437 663c 0375 143e
00000040: 65a5 4ebe e450 4fbe 5d42 8b3c 66a0 8a3e
00000050: 7c86 123e 1f9c 16be 32a8 1d3d d786 743d
00000060: 9f15 b3be ab76 d6bc 28f2 273e 5518 8a3b
00000070: f548 21bd 7df9 acbc defc 8d3d ecff 08bd
00000080: a43b 52be 6fbd e73d 7fd3 313d cb8e 9e3d
00000090: 53ff 6ebd fab4 863d dbc3 ddbd 5ed9 a23e
000000a0: e24e c03c aa15 383e 7ae8 203e db3d 37be
000000b0: 5a85 0f3e be1f 16bf 4192 833c 71e0 dabe
000000c0: 06b8 a5be 71c0 1a3e e531 a5be afe5 6abe
000000d0: 476d 803d 412e 5ebe a70e 11bd be26 e83c
000000e0: 0d3d 363d 3371 fbbc 87e2 00bd 5bf3 9e3b
000000f0: e3e4 99bd f24c 583a 1ec1 713c 05d1 38bd
00000100: f4dc 273e ddec c6bd f8e1 1c3d 65c8 3abd
00000110: 570e 14be d335 0a3e 1b8e 363e 3293 a23d
00000120: 1bf7 f73d 1d80 2a3e 6725 84bc e651 c53d
00000130: 4893 e53c 1f4b 31bc f340 913e 40d0 823c
00000140: 2257 ccbc a72a 8d3d 996c 92bc f581 863d
00000150: 0912 2f3e e34c 1f3c f669 0a3d 5841 123e
00000160: a96a 87be a763 903e f5de d9bd a9a2 373e
00000170: d470 5cbe 2785 313c b468 ffbb 4bb9 37be
00000180: d72d ae3d 0d75 afbc 3e8b 8ebe 8e75 dbbc
00000190: 0d4f c6bd 8da1 863d 1b56 5d3e f3db a6bd
000001a0: cc48 85ba 98a2 883d cc2b b8bd f7da f7ba
000001b0: 29b0 0f3d b164 cfbe 1e25 a23d 00c6 75bd
000001c0: 45c9 36be 1194 023e 8c53 363e b9f1 2b3e
000001d0: 57e4 dbbc 5522 1e3d 6ffe a9bc b926 7ebd
000001e0: 2789 debc 1fe8 38be e150 99bd 7c3d f2bd
000001f0: f5c0 2abe a1e0 d0bc 6d99 02bd 5d6e 783c
00000200: b8ee 69bb a006 3abd f1d1 bfbb 2f61 f1bb
00000210: 8d3f e53c 9644 0d3d 4039 943c 4905 763c
00000220: 6e1b f339 341f 2d3d 0bab 893d 59bf 88bd
00000230: c571 28bd 5341 b73d 66a0 f33b 4935 a3bc
00000240: 80bd f83e ebe1 4dbe 38b2 15be c0c0 863d
00000250: 46a3 a3bd 0100 51be 349b 16be 8bce 76be
00000260: b304 19be c606 ad3d a1a8 a6be fe7d 1a3e
00000270: 9e0a c83d d99c 55bd f67f c4bc 6969 a73d
00000280: 735d b83d c758 bdbb 4df5 32bc 9217 4ebc
00000290: 0293 eabb f28d f93c dd85 6d3c 0aa8 a9bc
000002a0: 8e57 3b3c 7731 0e3c 9be2 2dbd dbf1 e63d
000002b0: a814 53be 2c68 0ebe defb c03d c38e 56be
000002c0: 69a5 37be 28fa a23d 055f 29bd 52d3 f4bc
000002d0: c3a4 263e c42b ffbd 0302 553e ee3c 483e
000002e0: 6184 48bd 5d60 ca3d 9515 a5be 2bcd 0ebd
000002f0: f928 1dbd 41af 0cbc 5f8e 953c 1950 d63d
00000300: c30e 53bd 3322 25bd c1d7 693d d02c 59bd
00000310: 1685 adbd 3b81 4bbd 4bba afbd 6bb3 82be
00000320: fe45 093e 1c7f 8abe 2cbc 55bd 31ff 2f3d
00000330: 2ca4 103b 251d c03e 2929 40be acca 1c3e
00000340: 6e8d 5bbb 9a11 f43c 76b3 5cbc f4a3 8f3d
00000350: 7615 cebd e72c 28bd c6c2 15be 3ed7 03be
00000360: 7cb9 92bd 91bb 413c e79b 85bd 2a45 1cbd
00000370: 5185 c8bd 1290 89bd 4ca9 1ebe 5c09 a5bd
00000380: b25c a8bd 095d 5c3e f756 c1be 8e1c c63e
00000390: 17c3 603e f65a d1bd c78e 5b3e ed71 a03e
000003a0: 9549 9e39 53ee afbc fd66 b63b 0384 093d
000003b0: 43d0 33bc 26c0 093d 8b0c 4bbb 5f31 53bc
000003c0: 7296 f8bb 0b25 fa3c 7a07 073d b571 fd3e
000003d0: d60b b1bd 5d51 663d 7565 02be 28a9 4cbe
000003e0: e907 1abe 4217 2dbe 3513 9ebe 50f8 5fbe
000003f0: 7742 0c3d 25c2 54be 38aa 6dbd fbb9 70be

hidden_layers.4.bias f4 [64]
0.07419991 0.15898448 0.010510896 -0.04242607 0.085932165 -0.0148897115 0.0064227604 -0.0022733915
0.007496702 -0.12051781 0.067405306 0.040854055 -0.008143776 -0.025673574 0.08370037 -0.22841832
0.077796355 0.014552998 -0.013053943 -0.025134286 0.025908358 0.04788856 -0.05251521 0.06684757
0.122422874 0.05375364 -0.3168196 0.015297276 0.0010068172 -0.08643207 -0.03685078 0.01005776
0.040387776 0.020053359 0.0174523 0.1482307 -0.041496072 -0.024452303 0.03242192 -0.037588168
-0.014607782 0.0003761386 -0.0753008 -0.028543156 -0.06592303 -0.031450465 -0.013503512 0.010351926
-0.05494546 -0.044241846 -0.049419858 -0.035441443 -0.011876216 0.10118944 0.040621042 0.013708038
-0.017853387 -0.014661782 -0.008212914 0.015666772 -0.035737127 0.005304335 -0.08371369 -0.05563479
00000000: 1ff6 973d d4cc 223e e535 2c3c f5c6 2dbd
00000010: 34fd af3d faf3 73bc 0576 d23b 2efd 14bb
00000020: e5a6 f53b 0bd2 f6bd cb0b 8a3d 9556 273d
00000030: 796d 05bc 6351 d2bc 196b ab3d 7ee6 69be
00000040: b253 9f3d b36f 6e3c 35e0 55bc 6be6 cdbc
00000050: c43d d43c cb26 443d 301a 57bd 61e7 883d
00000060: d8b8 fa3d c72c 5c3d 2e36 a2be 6da1 7a3c
00000070: 2ef7 833a 4c03 b1bd d8f0 16bd 4ec9 243c
00000080: a76d 253d f146 a43c 20f8 8e3c cac9 173e
00000090: c9f7 29bd 3250 c8bc d9cc 043d 0df6 19bd
000000a0: 7a55 6fbc 7834 c539 4e37 9abd 56d3 e9bc
000000b0: a702 87bd 34d2 00bd d63d 5dbc 209b 293c
000000c0: 7e0e 61bd f036 35bd 7a6c 4abd 0c2b 11bd
000000d0: 7694 42bc 693c cf3d 4062 263d ae97 603c
000000e0: 4441 92bc f937 70bc 758f 06bc 9a57 803c
000000f0: 1861 12bd fdcf ad3b 1572 abbd 4ee1 63bd
