srcnn_model.pth (torch, 422640 bytes, 6 tensors)

conv1.weight f4 [256, 3, 9, 9]
0	0xbd7287fe	-0.059211724
1	0x3af450c1	0.0018639789
2	0x3d3a6d01	0.04551411
3	0xbc85ea47	-0.016347064
4	0x3cc48cfb	0.023993006
5	0xbd4ded8e	-0.050275378
6	0xbd17b2af	-0.03703564
7	0xbc9dc33c	-0.019258134
8	0xbcd024a4	-0.025408097
9	0xbc564e0d	-0.013080132
10	0x3d77750c	0.06041436
11	0xbc967b88	-0.018369451
12	0x3cc71207	0.024300588
13	0x3b9556ed	0.0045574815
14	0x3d37266d	0.04471438
15	0xbcc77e1c	-0.024352126
16	0x3d92e3cc	0.07172355
17	0xbc011804	-0.007879261
18	0x3ca99c9c	0.02070456
19	0x3d9041a4	0.0704377
20	0xbd4939cd	-0.04912739
21	0x3c901957	0.017590208
22	0xbd1197da	-0.035545208
23	0xbd5bcf4e	-0.053664498
24	0x3a963dbe	0.0011462492
25	0x3d6fec7a	0.05857513
26	0xbd0914a7	-0.03346696
27	0x3d183572	0.037160344
28	0xbd7b1d32	-0.06130714
29	0xbcd8077d	-0.026370758
30	0x3db8df82	0.09027006
31	0x3d7ef5e0	0.062246203
32	0x3d4f3d08	0.050595313
33	0x3d0c89ce	0.03431111
34	0xbcb8316f	-0.02248451
35	0xbce3cd10	-0.027807742
36	0xbd79e069	-0.06100503
37	0x3bae58aa	0.005320628
38	0x3d51193b	0.051049452
39	0x3e00e23a	0.12586299
40	0x3e4063b6	0.18788037
41	0x3dee6550	0.116404176
42	0xbc982f0b	-0.01857712
43	0xbbc3b99b	-0.0059730536
44	0xbd7a26b7	-0.061072078
45	0xbd2fe58f	-0.042943534
46	0xba275ec3	-0.0006384665
47	0xbd65706a	-0.05601541
48	0x3ceb7b05	0.028745184
49	0x3d328f6d	0.043593813
50	0x3d8a14a9	0.06742222
51	0x3ca3b3e0	0.019983232
52	0xbda4c684	-0.08045676
53	0xbd86801c	-0.06567404
54	0xbd3f3965	-0.046685595
55	0x3cc8c877	0.024509652
56	0xbd5204ad	-0.05127399
57	0x3c55e5b1	0.013055251
58	0x3be09bd5	0.006854514
59	0x3d1bd0a9	0.03804079
60	0x3ce6aadc	0.028157644
61	0xbce17a39	-0.0275241
62	0x3c403e10	0.011733547
63	0x3c2cc4db	0.010544981
64	0x3d780c23	0.06055845
65	0xbcbc8882	-0.02301431
66	0xbd7593b8	-0.05995533
67	0x3b16dd7e	0.0023020203
68	0xbcd26791	-0.02568415
69	0x3c10556f	0.008809431
70	0xbcd01d7d	-0.025404686
71	0x3d085ed8	0.033293575
72	0xbce591a6	-0.028023552
73	0xbc039b02	-0.008032562
74	0x3c338a13	0.010958212
75	0xbcc333ef	-0.023828475
76	0xbc91c959	-0.017796205
77	0x3d86fa71	0.06590737
78	0xbaf5308a	-0.0018706482
79	0x3d4a29e8	0.04935637
80	0xbccdfa48	-0.025143757
81	0x3b520506	0.0032046451
82	0x3ca51baf	0.020154802
83	0x3cec2153	0.028824484
84	0x3d7e7366	0.06212177
85	0x3d64b236	0.055834018
86	0x3d18d6d6	0.03731426
87	0x3b37028e	0.0027925107
88	0x3cdeb051	0.027183684
89	0xbc0e28c9	-0.008676716
90	0xbc5ea0b2	-0.013588117
91	0x3d38472a	0.044989742
92	0xbcdef044	-0.027214177
93	0x3d484cde	0.04890143
94	0xbd50bf97	-0.050963964
95	0xbd62c118	-0.05535993
96	0x3d73f760	0.059562087
97	0xbbde636c	-0.0067867544
98	0x3b4cc843	0.0031247295
99	0x3b1c59d2	0.0023857248
100	0x3ab27486	0.0013615049
101	0x3c200e8c	0.009769093
102	0xbc164da7	-0.009173787
103	0xbd5dc837	-0.054146018
104	0xbdacd33c	-0.08438727
105	0x3d95b6d8	0.07310265
106	0x3c160dab	0.009158532
107	0xbd81e908	-0.06343275
108	0xbd3f6d94	-0.04673536
109	0x3d2a49a3	0.04157413
110	0xbd308db2	-0.04310388
111	0xbbed19ba	-0.007235733
112	0xbd85c5bc	-0.065318555
113	0xbdc2c4b8	-0.095101774
114	0xbd8cd583	-0.06876662
115	0x3c3eac62	0.011637779
116	0xbc3f6453	-0.011681634
117	0x3befdd03	0.007320048
118	0x3d89a72f	0.06721341
119	0x3cbb31d5	0.02285091
120	0x3d3c57db	0.045982223
121	0x3bf42650	0.0074508563
122	0xbcf551bd	-0.029946202
123	0x3b6f375e	0.0036501507
124	0x3ca8f34c	0.020623825
125	0xbca3d4ce	-0.019998934
126	0xbd2dd279	-0.04243705
127	0xbad45ee8	-0.0016202601
128	0xbb0cf0b0	-0.0021505766
129	0x3b81f9ac	0.003966531
130	0xbceb3c86	-0.028715383
131	0x3bef7882	0.007308067
132	0x3d46fc59	0.0485805
133	0xbd0daad5	-0.034586746
134	0xbd8f84be	-0.070077404
135	0xbd11ad91	-0.035565916
136	0x3d4432f2	0.047900148
137	0xbcd55cee	-0.026045289
138	0xbd95ae45	-0.0730863
139	0xbde1b94c	-0.11021671
140	0x3d1c60e4	0.03817834
141	0x3d57afee	0.052658014
142	0xbc1f339e	-0.009716896
143	0x3d2ef438	0.042713374
144	0x3c9bbd4d	0.019011164
145	0x3c50aa36	0.012735894
146	0xbc18fcae	-0.009337587
147	0xbd81b053	-0.06332459
148	0xbd18a14d	-0.037263203
149	0xbd44b12b	-0.048020523
150	0x3cfda7d7	0.030963821
151	0xbd624eb4	-0.05525084
152	0x3c60e772	0.013727056
153	0x3d74c3ef	0.05975717
154	0xbd0bd86f	-0.034141954
155	0x3d9f709e	0.07785152
156	0xbcdb7b19	-0.026792096
157	0xbd2acb1a	-0.0416976
158	0x3d1ae452	0.0378154
159	0xbd45d50e	-0.048298888
160	0xbc4977cc	-0.012296628
161	0x3cee366e	0.029078688
162	0x3cd9b5aa	0.026575882
163	0xbbb760fd	-0.0055962787
164	0x3d0f178f	0.034934577
165	0xbd04121c	-0.032243833
166	0xbd0f63d1	-0.0350073
167	0xbd4beb28	-0.04978481
168	0xbca8e977	-0.020619137
169	0xbbb7e82a	-0.005612393
170	0x3cde8330	0.027162164
171	0xbca6ff1b	-0.020385316
172	0xbc0fe212	-0.008781927
173	0xbd279b93	-0.04091985
174	0xbc95a1a2	-0.01826555
175	0xbbb20f8a	-0.0054339813
176	0x3cacd996	0.021099847
177	0x3c8583ae	0.016298141
178	0x3cc5f06c	0.024162494
179	0x3d047432	0.032337375
180	0x3bd80cb7	0.0065933126
181	0xbcf28f43	-0.029609328
182	0xbdbb5d19	-0.09148616
183	0xbd8d818d	-0.069094755
184	0x3c85b5bc	0.01632201
185	0x3c9691a1	0.018379988
186	0x3cf5e818	0.030017897
187	0x3cb107d3	0.021610176
188	0xbcdc810f	-0.026917009
189	0x3d310bfa	0.043224312
190	0xbd89d556	-0.06730144
191	0xbc216ce6	-0.009852624
192	0xbd947bc9	-0.07250173
193	0x3d3e5b7e	0.046473972
194	0x3daaa41d	0.083320834
195	0x3d859614	0.06522766
196	0xbd7f456f	-0.062322076
197	0x3d6dae3f	0.058027502
198	0x3d53bfab	0.05169646
199	0xbc9f7eba	-0.019469608
200	0x3cd37886	0.025814306
201	0x3cfdaaf9	0.030965315
202	0x3e201702	0.15633777
203	0x3e0c6ac7	0.13712607
204	0x3d7c10e4	0.061539546
205	0x3d1f2b49	0.03885964
206	0xbc42334d	-0.011853051
207	0xbd28af47	-0.041182783
208	0xbc35b589	-0.011090645
209	0x3d00a1bc	0.031404242
210	0x3d49b8d6	0.04924854
211	0xba57fa83	-0.0008238928
212	0x3db24eb6	0.08706419
213	0x3d2176e0	0.03942001
214	0xbd121955	-0.03566869
215	0xbc94de4c	-0.018172406
216	0xbc322ef3	-0.010875451
217	0x3ca4750d	0.020075345
218	0x3ca8616d	0.020554269
219	0xbc1c5c6c	-0.0095435195
220	0xbc47c664	-0.012193296
221	0xbd5258d5	-0.051354248
222	0xbc3cec8f	-0.011531009
223	0x3c886cc7	0.016653432
224	0xbd74f9a9	-0.059808407
225	0xbb658f48	-0.003502803
226	0xbc84ffe5	-0.016235301
227	0xbd423768	-0.04741612
228	0xbb692bfb	-0.0035579193
229	0x3d2bc4e0	0.0419358
230	0xbd84bd74	-0.06481448
231	0xbcf8a68e	-0.030352857
232	0xbcec9bd9	-0.028882908
233	0x3cf6420c	0.03006079
234	0xbcc92b76	-0.024556857
235	0x3d197cd3	0.037472557
236	0x3d823096	0.06356923
237	0x3cc714a7	0.02430184
238	0xbc37ce8e	-0.01121868
239	0xbd1d819e	-0.03845369
240	0x3d5bc65a	0.05365596
241	0xbb7cb678	-0.0038560908
242	0x3c4f29cb	0.012644242
243	0xbcc0dacd	-0.023541832
244	0xbe10910e	-0.14117834
245	0x3cac565d	0.021037275
246	0xbc750f95	-0.014957328
247	0xbdbaf6fc	-0.0912914
248	0xbd08cc85	-0.03339817
249	0xbbcc1cc1	-0.0062290137
250	0xbd6098f0	-0.054833353
251	0xbcefa5d1	-0.029253872
252	0x3c787211	0.015163914
253	0xbdac5b31	-0.08415831
254	0xbcfbd6e5	-0.030742118
255	0x3d45d028	0.048294216

conv1.bias f4 [256]
0	0x3d17dca7	0.037075665
1	0xbdc71b5c	-0.09722015
2	0xbda3a985	-0.07991318
3	0x3d2ad50c	0.041707084
4	0xbd8f6546	-0.07001738
5	0xbda0516f	-0.07828032
6	0x3d12edbb	0.03587125
7	0xbdcc013f	-0.09961175
8	0x3b60ea7e	0.0034319456
9	0xbdb8cd13	-0.0902349
10	0xbcf38390	-0.02972582
11	0x3e04e107	0.12976466
12	0x3da801ac	0.08203444
13	0xbe011bce	-0.12608263
14	0x3dd1c712	0.10243048
15	0xbc83b129	-0.016075687
16	0x3c6a9894	0.014318604
17	0xbd0826c0	-0.03324008
18	0x3b5cfce2	0.0033720066
19	0xbe1c505c	-0.1526503
20	0x3d9d8f28	0.076933205
21	0xbcdc4f8e	-0.026893403
22	0xbf206ec2	-0.62669003
23	0xbc80a6a1	-0.015704455
24	0xbd2230b4	-0.03959723
25	0xbc079e6d	-0.008277518
26	0x3d17214e	0.036896996
27	0xbb99aec4	-0.004690023
28	0x3d99d896	0.075120136
29	0x39cbe1d3	0.0003888743
30	0x3d7a16ac	0.061056778
31	0xbdebbe08	-0.11510855
32	0x3c0a3378	0.008435123
33	0xbd1ea475	-0.038731057
34	0x3cbeaec3	0.023276692
35	0x3df0eb39	0.11763615
36	0x3d3bf1bd	0.045884836
37	0x3dd0f136	0.10202257
38	0xbc9154ef	-0.017740695
39	0x3dd81958	0.10551709
40	0x3cbdb624	0.02315814
41	0x3dc79e8d	0.09747038
42	0x3cd442ac	0.025910698
43	0xbc9223e9	-0.017839389
44	0xbda6f757	-0.08152645
45	0xbc9a176a	-0.018809993
46	0xbcd1e98f	-0.025624065
47	0x3d5de5a4	0.05417408
48	0x3d030b33	0.031993102
49	0x3c1104ee	0.008851273
50	0x3e02f172	0.12787417
51	0x3d9ad65b	0.07560416
52	0x3c674cc8	0.014117427
53	0xbd862af3	-0.06551161
54	0x3d10c043	0.035339605
55	0xbe171823	-0.14755301
56	0x3e42b72e	0.1901519
57	0xbc95760d	-0.018244768
58	0x3da778d4	0.08177343
59	0xbe042d8c	-0.12908
60	0x3ca3ee15	0.020010987
61	0xbe81ed57	-0.25376388
62	0x3cf794be	0.030222293
63	0x3e012533	0.12611847
64	0xbc08bef2	-0.008346306
65	0x3d88543c	0.066566914
66	0xbe0d5d57	-0.13805138
67	0xbdafadaf	-0.085780494
68	0x3bea9584	0.007158937
69	0x3d85ecd3	0.06539311
70	0xbd491c2b	-0.04909913
71	0xbce8799b	-0.028378299
72	0x3c5e8673	0.01358186
73	0x3c076d8a	0.008265862
74	0x3d453fac	0.048156425
75	0x3d022f6f	0.031783517
76	0xbd86f300	-0.06589317
77	0x3b2970cf	0.0025854593
78	0xbc205516	-0.009785911
79	0xbd911ad2	-0.07085194
80	0xbd8fc176	-0.070193216
81	0x3d3322c7	0.043734338
82	0x3e055e69	0.13024296
83	0x3ddc2ebb	0.10751101
84	0xbc86d318	-0.01645808
85	0xbd932cf1	-0.07186306
86	0x3c812623	0.015765255
87	0x3b485198	0.0030566212
88	0x3c95caea	0.018285234
89	0xbce949be	-0.028477546
90	0x3e2b7554	0.16743976
91	0xbd78ee51	-0.06077415
92	0x3ac900ce	0.0015335323
93	0xbd6b5f03	-0.057463657
94	0x3e3a73b8	0.18208206
95	0x3e300759	0.17190303
96	0x3ce24735	0.027621845
97	0xbd63c776	-0.055610143
98	0xbc5376eb	-0.01290677
99	0x3cf37504	0.029718883
100	0x3e822b26	0.25423545
101	0x3dc96342	0.09833385
102	0xbd8def50	-0.06930411
103	0x3c2b13c7	0.010441727
104	0xbc843730	-0.016139597
105	0xbd9a9a06	-0.07548909
106	0xbc2736de	-0.010205952
107	0xbcc83719	-0.024440335
108	0xbd68b8ce	-0.05681687
109	0x3cfd57c6	0.030925643
110	0x3e255211	0.16144587
111	0x3bf6f427	0.0075364294
112	0x3cb2bc6c	0.021818362
113	0xbd6a4676	-0.057196103
114	0x3d6ac463	0.057316195
115	0xbbc07bce	-0.0058741337
116	0xbd4f7829	-0.050651703
117	0xbc605cf8	-0.0136940405
118	0x3cf13a7f	0.029446838
119	0x3deb49ed	0.114887096
120	0xbbfdf2e8	-0.007749904
121	0xbcfadb2d	-0.03062209
122	0x3ef3c008	0.47607446
123	0xbd3753cc	-0.04475765
124	0x3d387a92	0.045038767
125	0xbdbc8aed	-0.092061855
126	0x3d026e1e	0.031843297
127	0xbb5eda02	-0.0034004455
128	0x3dfdadd3	0.1238667
129	0xbd6ac301	-0.057314876
130	0xbd8d0a4b	-0.06886729
131	0xbd50828d	-0.050905753
132	0x3d886052	0.06658997
133	0xbd62356a	-0.05522672
134	0x3d8b2cee	0.06795679
135	0xbdd5b58c	-0.10435018
136	0x3e16f406	0.14741525
137	0x3c98a92e	0.018635359
138	0xbf1fb465	-0.62384635
139	0xbc88621d	-0.016648347
140	0xbc7072b6	-0.014675787
141	0xbd40a202	-0.047029503
142	0xbdc5d537	-0.09659808
143	0xbdd5acaa	-0.10433324
144	0xbd0a7bb3	-0.033809375
145	0xbd598566	-0.053105734
146	0x37d06a74	2.4845103e-05
147	0x3d94dd1f	0.07268738
148	0xbd92f75f	-0.071760885
149	0x3e01e387	0.12684451
150	0xbd3306d4	-0.043707684
151	0x3cf413f4	0.02979467
152	0x3dd03fc8	0.10168415
153	0xbd96e715	-0.07368294
154	0xbe2b261b	-0.16713755
155	0xbd8d4d58	-0.06899518
156	0x3cf9244c	0.030412816
157	0x3c2aeed9	0.010432922
158	0x3d183ff2	0.037170358
159	0xbda25151	-0.07925666
160	0x3e4c9569	0.1997887
161	0x3ea6e128	0.32593656
162	0x3dba40b7	0.090943746
163	0xbe38780a	-0.18014541
164	0x3cdcf112	0.02697042
165	0x3d3d12b9	0.046160433
166	0xbcadfb93	-0.021238124
167	0x3c38b003	0.011272433
168	0xbc598801	-0.013277055
169	0x3e918d93	0.28428325
170	0x3d0a2e99	0.033735845
171	0xbce3674a	-0.027759213
172	0x3dee6fb4	0.116423994
173	0x3d89f588	0.067362845
174	0xbdef071d	-0.116712786
175	0xbdb7c7bb	-0.089736424
176	0x3d8cde4d	0.06878338
177	0xbd729379	-0.059222672
178	0xbb413566	-0.002948129
179	0x3b840b1c	0.0040296447
180	0x3d733a9b	0.059382062
181	0xbd2f3d10	-0.042782843
182	0xbe1b2ca4	-0.15153748
183	0x3c9eea33	0.019398784
184	0xbbee818a	-0.007278626
185	0xbd02ac5a	-0.03190265
186	0xbd2abf87	-0.04168656
187	0x3d882029	0.06646759
188	0x3ccb5b3f	0.024823783
189	0xbb387c75	-0.0028150354
190	0xbd384b17	-0.044993486
191	0xbcff7831	-0.031185241
192	0xbca5307f	-0.020164726
193	0xbd9fbf42	-0.078001514
194	0x3d275522	0.040852673
195	0xbd633ccf	-0.055477913
196	0xbc82dfd2	-0.015975866
197	0xbd1ef6fa	-0.038809754
198	0xbb978781	-0.0046243076
199	0x3d8fd383	0.070227645
200	0x3d582428	0.052768856
201	0x3d8de07a	0.06927581
202	0x3dbd27ae	0.09236084
203	0x3d096a81	0.033548836
204	0x3be3d429	0.0069527817
205	0xbcba70da	-0.02275889
206	0x3b593bd8	0.0033147242
207	0xbdee39fc	-0.116321534
208	0xbe1a4de6	-0.15068778
209	0x3e7e3ba5	0.2482744
210	0x3d3a3258	0.045458168
211	0x3e33067d	0.17482944
212	0xbd254b2b	-0.04035489
213	0x3d974868	0.07386857
214	0x3d18b855	0.037285168
215	0x3d969423	0.073524736
216	0x3a5b4bdd	0.00083654915
217	0xbd17aa4a	-0.037027635
218	0x3de49b89	0.111624785
219	0xbd94914b	-0.07254275
220	0x3d23b3ca	0.039966382
221	0xbe46463e	-0.19362733
222	0x3d28e5c3	0.041234743
223	0xbcab07c1	-0.02087772
224	0xbd2fa6fa	-0.04288385
225	0x3e354460	0.17701864
226	0x3bb2da13	0.0054581254
227	0xbd3a3467	-0.04546013
228	0x3ca5de20	0.020247519
229	0xbe4ce5aa	-0.20009485
230	0x3d5f91c2	0.054582365
231	0xbe063cd3	-0.1310914
232	0xbc9aa146	-0.01887573
233	0xbe04ca86	-0.12967882
234	0xbd22a89f	-0.03971159
235	0xbd60e9e6	-0.054910563
236	0xbdd7adcd	-0.10531197
237	0x3dea91f5	0.1145362
238	0x3d6dfbc5	0.058101434
239	0x3d0d5c9c	0.034512147
240	0x3d4f67eb	0.050636213
241	0x3e955b11	0.2917104
242	0xbb29fa98	-0.002593672
243	0x3d0c161f	0.034200784
244	0xbd17badf	-0.03704345
245	0xbbee2f1a	-0.0072687985
246	0xbdf4a01d	-0.11944602
247	0x3d1111b3	0.03541727
248	0xbc7279b5	-0.014799525
249	0x3e59a3e2	0.21253923
250	0x3e032843	0.12808327
251	0x3bd0a3e3	0.006367193
252	0xbd55378d	-0.05205493
253	0xbb1f3335	-0.0024291996
254	0x3c2ad255	0.010426124
255	0x3d57fa08	0.052728683

conv2.weight f4 [128, 256, 1, 1]
0	0x3d7497f7	0.059715237
1	0xba1fd61a	-0.0006097272
2	0x3d0d2a10	0.034463942
3	0x3dd5b321	0.10434557
4	0x3ba976e8	0.0051716454
5	0x3dac4937	0.08412402
6	0x3db298d4	0.08720556
7	0xbd8a75fc	-0.06760785
8	0x3da5ed29	0.08101875
9	0xbd78d4f1	-0.06074995
10	0xbc2fd2f1	-0.010731445
11	0x3d565faa	0.052337326
12	0x3d1f3ae1	0.03887451
13	0xbe99fa49	-0.30073765
14	0x3baaa379	0.0052074757
15	0x3d09fb21	0.03368676
16	0x3c8549b2	0.016270492
17	0xbd812294	-0.063054234
18	0xbd91f1bb	-0.071261846
19	0x3c106dd9	0.008815252
20	0xbdbe7e60	-0.09301448
21	0xbca43b7a	-0.020047892
22	0xbdd16dc3	-0.102260135
23	0xbdcf410b	-0.10119828
24	0x3dd2ac8d	0.10286818
25	0x3cff280f	0.031147031
26	0x3dd4054a	0.10352571
27	0x3d30518f	0.04304653
28	0x3e5c9919	0.21542777
29	0x3cbc1b35	0.022962192
30	0x3d96874d	0.07350025
31	0xbe07ace1	-0.13249542
32	0x3e429480	0.19001961
33	0xbcffb39f	-0.03121358
34	0xbc7575b7	-0.014981679
35	0xbe00cde7	-0.12578546
36	0xbe32e44c	-0.17469901
37	0x3c4a1d90	0.01233615
38	0x3c9657d1	0.018352421
39	0x3d384a5a	0.044992782
40	0xbcaf598e	-0.021405008
41	0xbd83b0ac	-0.06430182
42	0xbca7fa10	-0.020504981
43	0x3d5c3fe7	0.05377188
44	0xbc03eedb	-0.008052553
45	0x3bdacb29	0.0066770506
46	0xbde5edec	-0.112270206
47	0xbc9e43c9	-0.019319432
48	0x3cf65c62	0.030073348
49	0xbd9bc816	-0.07606523
50	0xbe33c95e	-0.17557284
51	0x3d837c26	0.06420164
52	0xbe072ad0	-0.13199925
53	0xbd861a86	-0.06548028
54	0x3c666966	0.014063215
55	0xbc98f490	-0.018671304
56	0x3d5b4c35	0.053539474
57	0xbd51e07d	-0.05123948
58	0xbf6f0d6f	-0.93379873
59	0xbc2dddec	-0.010611992
60	0xbac03cda	-0.0014666573
61	0x3d94ce28	0.07265884
62	0xbd95c67e	-0.0731325
63	0xbdce54e8	-0.10074788
64	0x3cc94ffa	0.024574269
65	0xbd3da68b	-0.046301406
66	0x3e377b5a	0.17918149
67	0x3cad4347	0.021150244
68	0x3d07161d	0.032980073
69	0xbd12c0a3	-0.035828244
70	0xbcf3ff76	-0.0297849
71	0xbd7ed216	-0.062212072
72	0xbb85e5b3	-0.00408622
73	0x3dfda477	0.12384885
74	0xbd12e933	-0.035866927
75	0x3b13aed3	0.0022534623
76	0xbd85a188	-0.0652495
77	0xbd29167e	-0.041281216
78	0xbd2d2843	-0.042274725
79	0x3e2df7e2	0.16989091
80	0x3d0d325f	0.034471866
81	0xbd8dcaa5	-0.06923417
82	0x3cc8322a	0.024437983
83	0x3be2add7	0.006917696
84	0xbd03fa85	-0.032221336
85	0x3cf4ee44	0.02989877
86	0xbc1c7387	-0.009549028
87	0xbd6a1b08	-0.057154685
88	0x3dd85013	0.10562148
89	0x3bf0fba2	0.0073542157
90	0xbdac9c0a	-0.084281996
91	0x3d5b002d	0.053466965
92	0xbe22e115	-0.15906174
93	0xbcb9fd07	-0.02270366
94	0x3ca85f79	0.020553337
95	0x3dd4ec68	0.103966534
96	0xbde90acb	-0.11379012
97	0xbcd6a68b	-0.02620246
98	0xbdf3206c	-0.11871418
99	0xbd06a976	-0.032876454
100	0x3ba29a8f	0.0049622725
101	0x3da1c8e8	0.07899648
102	0xbdc9babf	-0.09850072
103	0x3d89cd58	0.06728619
104	0x3d94d9ec	0.07268128
105	0xbba392c9	-0.0049918634
106	0x3df6f348	0.12058121
107	0xbe15ad0f	-0.14616798
108	0x3ca700b9	0.020386087
109	0xbc84f9ae	-0.016232338
110	0xbe9c6062	-0.30542284
111	0x3e29ef78	0.16595256
112	0x3ca96b93	0.020681178
113	0x3d5b87e2	0.053596385
114	0x3d09cd31	0.03364295
115	0x3d8b36d3	0.06797566
116	0xbdf890b1	-0.12136973
117	0x3d05470c	0.03253846
118	0xbd87a5ea	-0.066234425
119	0xbd9266fe	-0.071485505
120	0x3b20994d	0.0024505437
121	0x3da1c05e	0.07898019
122	0x3c75a115	0.014992018
123	0x3cbd0d95	0.023077765
124	0x3e19cf89	0.15020575
125	0xbd6371d0	-0.055528462
126	0xbe446d42	-0.19182304
127	0x3d0864bb	0.03329919
128	0xbdba52af	-0.09097802
129	0xbdca96b4	-0.098920256
130	0xbd7a4176	-0.061097585
131	0xbd8f81cd	-0.070071794
132	0x3c270061	0.010192961
133	0xbe06c121	-0.1315961
134	0x3e126a1f	0.14298294
135	0xbd74de33	-0.05978222
136	0xbdab37a4	-0.08360222
137	0xbe0d0796	-0.13772425
138	0xbddde431	-0.1083454
139	0x3da341e4	0.07971552
140	0x3e03b014	0.12860137
141	0xbdc3a4cb	-0.09552916
142	0x3d826ec1	0.06368781
143	0xbc8bf757	-0.017085714
144	0xbdba9db5	-0.091121115
145	0x3d1c7ea1	0.0382067
146	0xbde0b635	-0.10972253
147	0xbdf95165	-0.12173728
148	0x3be64fc6	0.0070285527
149	0xbba3dcc4	-0.0050006825
150	0xbb84b7d4	-0.0040502343
151	0xbcb48f89	-0.0220411
152	0xbd797778	-0.06090495
153	0x3ca09448	0.019601956
154	0xbde6e8b4	-0.11274853
155	0xbd7d9d20	-0.061917424
156	0xbda018ca	-0.07817228
157	0xbd9127c3	-0.07087662
158	0xbe68a058	-0.22717416
159	0x3cd5ae8d	0.026084209
160	0x3da93c48	0.08263451
161	0x3e18428c	0.14869136
162	0x3cf9036d	0.030397141
163	0xbd6b254c	-0.057408616
164	0x3ce44db0	0.027869076
165	0x3dc7427f	0.0972948
166	0x3d7f64fb	0.06235216
167	0x3c0f2670	0.008737192
168	0x3c22c878	0.009935491
169	0xbd0ccc2a	-0.034374394
170	0x3c75ea55	0.015009482
171	0x3d69299b	0.056924444
172	0x3d489053	0.048965763
173	0xbd9e2619	-0.0772211
174	0xbce92fae	-0.028465118
175	0x3d9d279c	0.076735705
176	0xbd5342eb	-0.05157749
177	0xbda8ae9e	-0.082364306
178	0xbb96d749	-0.0046033007
179	0x3d5a3a7a	0.053278424
180	0xbd7ef28c	-0.06224303
181	0xbd5b9824	-0.05361189
182	0xbd0b3fe8	-0.033996493
183	0x3d5b5ed9	0.05355725
184	0x3def4104	0.116823226
185	0x3da7d879	0.08195586
186	0x3e56fe91	0.20995547
187	0xbc4572d7	-0.012051306
188	0xbd8c4491	-0.068490155
189	0xbd783471	-0.060596887
190	0xbeb8a246	-0.36061305
191	0x3e0ecf0c	0.1394617
192	0x3d5b8bb1	0.053600017
193	0xbd616839	-0.055031035
194	0x3d4ed323	0.050494324
195	0x3ac56601	0.0015060307
196	0x3b856828	0.0040712543
197	0xbd19357e	-0.03740453
198	0xbd802253	-0.06256547
199	0x3ca5b388	0.020227209
200	0xbcefc68d	-0.029269481
201	0xbcf79870	-0.030224055
202	0xbe02f6bf	-0.12789439
203	0xbdf04bf1	-0.11733235
204	0xbe2c3837	-0.1681832
205	0x3befa60c	0.0073134955
206	0xbe607894	-0.21920997
207	0x3c504156	0.01271089
208	0x3e888e47	0.2667105
209	0xbcf191bc	-0.029488437
210	0x3d844031	0.06457556
211	0xbdc649e6	-0.09682064
212	0xbdd704f7	-0.10498994
213	0xbb993a84	-0.004676165
214	0x3bf6b6f8	0.007529136
215	0x3ca82c08	0.020528808
216	0xbdd3e37c	-0.103461236
217	0xbe249e1e	-0.16075942
218	0x3c78a0fb	0.0151750995
219	0x3c13fc37	0.009032301
220	0xbe1de46b	-0.15419166
221	0x3c833ab8	0.01601921
222	0xbc459276	-0.012058845
223	0x3d8ad895	0.06779591
224	0xb940df10	-0.00018393644
225	0x3e5a7a1e	0.21335647
226	0xbd966cc2	-0.07344963
227	0xba7a824b	-0.00095561583
228	0x3db3eb02	0.087850586
229	0x3d0e5f84	0.03475906
230	0xbd9c30bc	-0.07626483
231	0xbe005bc1	-0.12535001
232	0x3c2ca84c	0.010538172
233	0xbd70a9db	-0.058755737
234	0x3d257f28	0.04040447
235	0xbd92b239	-0.071628995
236	0x3c67bc8f	0.014144077
237	0xbabe54b2	-0.0014521091
238	0x3c569cc6	0.013098901
239	0x3daa8084	0.08325294
240	0x3df3982d	0.118942596
241	0x3da8a36c	0.08234295
242	0xbbf41d1c	-0.007449759
243	0xbcb0b311	-0.02156976
244	0xbc760936	-0.0150168445
245	0xbc6046a8	-0.013688721
246	0xbd8d1972	-0.06889619
247	0xbd85e418	-0.06537646
248	0x3bc77315	0.006086717
249	0xbe90f9a2	-0.28315455
250	0x3dd31ec0	0.103085995
251	0xbe9e5a42	-0.30928236
252	0xbc8c750e	-0.01714566
253	0xbdf44ac5	-0.11928324
254	0x3d428e46	0.047498964
255	0xbc88144e	-0.016611245

conv2.bias f4 [128]
0	0xbc462c28	-0.012095489
1	0xbd3c5230	-0.045976818
2	0xbe03895b	-0.12845366
3	0x3d22a1a6	0.03970494
4	0xbb0fbd79	-0.0021933003
5	0xbda06393	-0.07831492
6	0xbd1422e0	-0.036166072
7	0x3ccd507a	0.025062788
8	0x3c8066b8	0.01567398
9	0xbd0c743d	-0.03429054
10	0xbd3b130c	-0.04567246
11	0xbd199f12	-0.037505217
12	0xbcb12d9b	-0.021628192
13	0x3c19f132	0.009395884
14	0xbdc885f8	-0.097911775
15	0x3db96924	0.09053257
16	0x3d2cb526	0.042164944
17	0xbb8f04dd	-0.0043645934
18	0xbc56b9c6	-0.013105815
19	0xbc05b1f3	-0.008160102
20	0x3cbcb23d	0.02303421
21	0xbd612fec	-0.054977342
22	0xbda35d55	-0.07976786
23	0x3a18c44c	0.00058275904
24	0xbc8de0d0	-0.017319113
25	0x3d013baa	0.03155104
26	0xbce1e901	-0.027576925
27	0xbd8e4fa2	-0.069487825
28	0x3dacab7f	0.08431148
29	0x3c845ec5	0.01615847
30	0xbb590ab5	-0.0033117954
31	0x3b57918c	0.003289315
32	0xbd2eaba8	-0.042644173
33	0x3c175635	0.009236862
34	0xbdda421f	-0.10657143
35	0xbcc584c4	-0.02411116
36	0x3b828235	0.003982807
37	0x3c5aba71	0.013350115
38	0x3d6e4f9f	0.0581814
39	0x3d4a0169	0.04931775
40	0xbcff3481	-0.031152966
41	0xbbaeffaa	-0.005340536
42	0x3b88cf8f	0.0041751335
43	0xbd64fc2d	-0.055904556
44	0x3d3d3463	0.046192538
45	0xbd3a032e	-0.04541319
46	0xbd8e9422	-0.06961848
47	0xbcb490bf	-0.022041677
48	0xbda7606c	-0.08172688
49	0xbcca6de6	-0.024710607
50	0xbbfa7995	-0.0076438882
51	0x3d09bd5d	0.033627857
52	0x3cd0168a	0.025401372
53	0xbd3afada	-0.045649387
54	0x3d244377	0.040103402
55	0xbc6058d2	-0.013693051
56	0xbd5df26f	-0.05418628
57	0x3cee7699	0.029109286
58	0xbd98b239	-0.07455868
59	0xbd6098de	-0.054833286
60	0x3d57878a	0.052619494
61	0xbd788b12	-0.060679503
62	0xbe25802f	-0.1616218
63	0xbc0bb660	-0.008527368
64	0xbc2a6edc	-0.0104024075
65	0xbd3dca2d	-0.046335388
66	0xbdd1b63f	-0.10239839
67	0xbca6a009	-0.020339983
68	0xbd2b41db	-0.04181085
69	0x3c8fc8c0	0.01755178
70	0x3b884517	0.004158627
71	0x390c3588	0.00013371382
72	0xbc9654d2	-0.018350992
73	0x3d98e8dc	0.074662894
74	0xbc5aa513	-0.013345021
75	0xbcb1a392	-0.021684442
76	0x3e0391a6	0.12848529
77	0xbcecb5d9	-0.028895305
78	0xbd152d98	-0.036420435
79	0xbe44a2a2	-0.19202664
80	0xbce3b57e	-0.027796503
81	0x3caf81ce	0.0214242
82	0xbccce20e	-0.025010135
83	0x3cd9a6a8	0.026568726
84	0xbdc7c454	-0.097542435
85	0xbd2136df	-0.03935897
86	0xbdaa3510	-0.08310902
87	0xbd825a6a	-0.06364901
88	0x39f17cac	0.0004605999
89	0x3d0fe38b	0.03512911
90	0xbcdc25c0	-0.02687347
91	0x3bb73cf8	0.005591985
92	0x3d8d3902	0.06895639
93	0xbc7e5939	-0.015524202
94	0x3cf4e677	0.02989505
95	0xbd6e6255	-0.058199245
96	0xbcc191c4	-0.023629077
97	0x3c025a0a	0.007956037
98	0xbc93723f	-0.017998813
99	0xbd3bcfa0	-0.045852304
100	0x3badceba	0.0053041847
101	0xbd81ed9b	-0.06344148
102	0xbc588683	-0.013215664
103	0x3c7e948d	0.015538347
104	0x3d526c04	0.051372543
105	0xbd85d672	-0.06535043
106	0xbd893631	-0.06699789
107	0xbb7a486b	-0.0038190137
108	0x3be961c8	0.007122252
109	0xbd3187db	-0.043342452
110	0xbc84e1c3	-0.016220933
111	0xbeb0c3b7	-0.3452432
112	0xbcc7dc45	-0.024397025
113	0xbd0d59de	-0.034509532
114	0xbd78ff8d	-0.060790587
115	0xbd2f0327	-0.042727616
116	0x3c3dca32	0.011583852
117	0x3d1f9661	0.038961772
118	0x3ccac3c9	0.02475156
119	0x3c2cca13	0.010546225
120	0xbd010339	-0.031497214
121	0xbd130738	-0.035895556
122	0xbd5f76f6	-0.05455681
123	0x3bfe446a	0.0077596204
124	0xbd18c76b	-0.037299555
125	0xbd99fdf8	-0.07519144
126	0xbd701673	-0.05861516
127	0xbcdf4ae2	-0.027257387

conv3.weight f4 [3, 128, 5, 5]
0	0x3bcc4d96	0.006234835
1	0xbb077978	-0.0020671766
2	0xbcb4106d	-0.021980489
3	0xbb733f86	-0.003711672
4	0x3c8e2896	0.017353337
5	0x3cbe61d1	0.023240002
6	0xbb82c174	-0.0039903466
7	0xbd578dd0	-0.052625477
8	0x3c95155b	0.01819866
9	0x3c00a561	0.007851929
10	0x3d217ab5	0.039423663
11	0x3cbd881d	0.023136193
12	0xbb5cd4a4	-0.003369608
13	0x3dcfbab5	0.101430334
14	0x3d4d0f1a	0.05006323
15	0x3c0ad7c0	0.00847429
16	0xbc891e21	-0.016738
17	0xbcb7adf4	-0.022421815
18	0x3cf0710c	0.02935078
19	0xbd93daf5	-0.07219497
20	0xbaa0d8ae	-0.0012271607
21	0xbc06b723	-0.008222374
22	0xbcaad4b2	-0.020853374
23	0xbd1faec6	-0.038985036
24	0x3c0e01e0	0.008667439
25	0xbbf53f42	-0.0074843476
26	0x3c9d0137	0.019165618
27	0x3d04123f	0.032243963
28	0xbd1c781e	-0.03820049
29	0xbca4a246	-0.02009691
30	0x3d079fbf	0.03311133
31	0x3d761275	0.060076196
32	0x3d97d974	0.07414523
33	0x3cd2fce4	0.025755353
34	0x3c9d3add	0.019193107
35	0xbd18d9a7	-0.037316944
36	0xbdac4a98	-0.08412665
37	0xbc6663a8	-0.014061846
38	0xbd177b6c	-0.03698294
39	0xbc9d97c0	-0.0192374
40	0x3bb5247d	0.0055280314
41	0xbd026210	-0.0318318
42	0x3c586bab	0.013209264
43	0xbc7563ca	-0.014977405
44	0xbbcadf8e	-0.0061912006
45	0xba923ec5	-0.0011157623
46	0xbaa947b8	-0.0012915051
47	0x3ca6d83b	0.020366779
48	0x3c860b23	0.016362732
49	0x3b1fcd69	0.0024383909
50	0x3c4a838d	0.012360466
51	0xbbd89bd8	-0.006610375
52	0xbc55ada4	-0.013041887
53	0x38a9d9ed	8.09914e-05
54	0x3baacf28	0.005212683
55	0xbbdcdc8f	-0.00674016
56	0xbc8e11b6	-0.01734243
57	0x3c8ba0e7	0.017044498
58	0xbd2e709e	-0.04258787
59	0x3c66f28b	0.014095913
60	0xbc7932d1	-0.0152098695
61	0x3c0b2090	0.00849165
62	0x3de0c59b	0.1097519
63	0xbc8a19a0	-0.016857922
64	0x3c18ddf5	0.009330262
65	0xbbcf2c27	-0.006322402
66	0xbd084bd9	-0.03327546
67	0x3d0a8b7b	0.033824425
68	0xbcd1cf95	-0.025611678
69	0x3b945eb8	0.004527893
70	0x3c6d13aa	0.01447002
71	0xbc35d07d	-0.011097071
72	0xbca27da3	-0.019835299
73	0xbc2309e2	-0.009951087
74	0x3c8fc617	0.017550511
75	0x3a9d42e2	0.0011998082
76	0x3c3d40e9	0.01155112
77	0x3ba1d689	0.0049389047
78	0x3b9d7185	0.0048047923
79	0x3c28f2fe	0.01031184
80	0xbb8a6974	-0.004223997
81	0x3d05c1d6	0.03265556
82	0x3d0959c5	0.033532877
83	0x3cb94dea	0.02262016
84	0x3c63bbe7	0.01389978
85	0xbc89bfb4	-0.016815044
86	0xbcb8b5bc	-0.022547595
87	0xbcbd2492	-0.023088727
88	0xbc8a0313	-0.016847169
89	0xbc685c1b	-0.014182116
90	0xbb90f99a	-0.004424286
91	0xbcca05cf	-0.024660973
92	0xbd450194	-0.04809721
93	0xbcf2bbb6	-0.029630523
94	0xbc565577	-0.0130819
95	0x3a95ffa5	0.0011443986
96	0x3cda53ac	0.026651226
97	0x3d81da83	0.06340506
98	0x3d25f67a	0.04051826
99	0x3c0a4ed6	0.0084416475
100	0xbd4648fb	-0.048409443
101	0xbd010def	-0.03150743
102	0xbc69f4f5	-0.014279594
103	0x3c83f3fa	0.016107548
104	0x3b929efe	0.0044745198
105	0xbc9f17b0	-0.019420475
106	0x3c0daf5f	0.008647769
107	0xbc90ee89	-0.017691867
108	0x3a39cc5a	0.00070876407
109	0xbbb21de2	-0.005435691
110	0xbc4d3d3a	-0.012526805
111	0x3d673f6c	0.05645697
112	0x3d71b560	0.059010863
113	0xb9f4adcd	-0.00046668798
114	0xbc7c40c3	-0.0153963
115	0xbcdb3ce2	-0.02676243
116	0x3d30fe76	0.043211423
117	0x3d845b4d	0.06462727
118	0x3ce8ee9e	0.028434094
119	0xbc484979	-0.0122245485
120	0xbd6122f5	-0.05496498
121	0xbcfa15c8	-0.030527964
122	0x3bf45534	0.007456446
123	0xbb0d7e58	-0.00215902
124	0xbc95ad83	-0.018271213
125	0x3b954ffe	0.004556655
126	0x3b7338f8	0.0037112813
127	0xbc08c713	-0.008348244
128	0xbc372e6b	-0.0111805005
129	0x3aa8dec3	0.0012883771
130	0x3b1a7f4a	0.0023574405
131	0x3cae4075	0.02127097
132	0xbcbc19c9	-0.022961514
133	0xbd09f871	-0.033684198
134	0x3cf1d08d	0.02951839
135	0x3b540864	0.0032353634
136	0x3d03c511	0.03217036
137	0xbcf37db1	-0.02972302
138	0xbd288a63	-0.0411476
139	0x3d9306e0	0.07179046
140	0x3c8fc059	0.017547773
141	0x3d1eeb47	0.038798597
142	0xbcacc67d	-0.02109074
143	0xbce93315	-0.02846674
144	0x3d232138	0.0398266
145	0xba9d28d2	-0.0011990315
146	0x3ba832d4	0.0051330123
147	0xbc4aab89	-0.012369999
148	0xbc8001f8	-0.015625939
149	0x3be112cc	0.006868696
150	0xbbde484f	-0.006783522
151	0xbb81ef1d	-0.003965272
152	0xbc70e304	-0.014702562
153	0x3af0e18b	0.0018377764
154	0x3be320d1	0.0069314023
155	0xbba43d4e	-0.005012191
156	0x3c7fa050	0.015602186
157	0xbbda0c89	-0.0066543263
158	0xba1460b8	-0.0005660164
159	0xbc0bbb2b	-0.008528511
160	0xbbef6817	-0.0073061096
161	0x3c3a07bd	0.011354384
162	0xbb6fd668	-0.0036596302
163	0xbb92f1b2	-0.0044843787
164	0x3ca8667a	0.020556677
165	0xbbfd3727	-0.007727522
166	0xbb98ab94	-0.0046591256
167	0x3c7c6be9	0.015406587
168	0xbbc1a7a8	-0.0059098788
169	0x3b56893f	0.0032735614
170	0x3c609812	0.013708131
171	0x3c2dcb67	0.010607577
172	0xbc1c3cbc	-0.009535965
173	0x3bf874bc	0.007582275
174	0x3c7c2711	0.0153901735
175	0xbc8b6490	-0.017015725
176	0x3c2db039	0.010601097
177	0x3c3d1f43	0.011543098
178	0x3c4b74fc	0.012418028
179	0x3b8943f9	0.004189011
180	0xbb3ef6af	-0.0029138734
181	0x3d0bdfc5	0.03414895
182	0xbc73a003	-0.014869693
183	0x3c1ccc40	0.009570181
184	0x3c6536cd	0.013990116
185	0x3c5d2e3c	0.013499793
186	0x3ce326fc	0.02772855
187	0xbde1535c	-0.11002228
188	0xbc8614b6	-0.016367298
189	0x3d05aa86	0.032633327
190	0x3b60a89b	0.0034280184
191	0x3c8f36e5	0.01748223
192	0xbc94d593	-0.018168246
193	0x3cdb803e	0.02679455
194	0x3cbbaa40	0.02290833
195	0x3b7df970	0.0038753413
196	0x3aa9745f	0.0012928358
197	0xbc8d2b41	-0.01723254
198	0x3b97192d	0.0046111555
199	0xbc036c10	-0.00802137
200	0xbbc2347a	-0.005926666
201	0x3c52d6ff	0.012868642
202	0x3c625d72	0.013816224
203	0xbb2ba6bd	-0.0026191913
204	0xbc355952	-0.011068659
205	0x3b1ba7bb	0.0023751098
206	0xbc26f2b3	-0.0101897
207	0xbc2105ed	-0.009828073
208	0x3c9776a4	0.01848919
209	0xbc65a4d7	-0.014016352
210	0xbc36a144	-0.011146847
211	0xbc6e6b39	-0.014551931
212	0xbc0230a1	-0.007946164
213	0x3c294871	0.010332213
214	0x3c6e317e	0.014538167
215	0x3b3827ed	0.002809997
216	0xbc423322	-0.011853011
217	0xbaf0039a	-0.001831162
218	0xbbc325fa	-0.005955455
219	0xbb67a945	-0.0035348695
220	0xbc1d5ab8	-0.009604149
221	0xbbcdc99b	-0.0062801368
222	0x3bac85fc	0.0052649956
223	0xbb522d6b	-0.0032070528
224	0xbc9c049a	-0.019045163
225	0x3c726e97	0.0147968745
226	0x3cec7b8e	0.02886751
227	0x3c12a8ff	0.008951425
228	0xbb70d4b9	-0.0036747886
229	0x3c237123	0.009975704
230	0xbca549fd	-0.020176882
231	0x3b3eca13	0.0029112145
232	0xbcbbf33b	-0.02294313
233	0xbbd945e0	-0.006630644
234	0xbcc0bd22	-0.023527686
235	0x3d1d0e65	0.038343806
236	0x3d04049a	0.03223095
237	0xbd711990	-0.05886227
238	0xbc793ab3	-0.015211749
239	0x3cdc18b8	0.026867256
240	0x3ca9652c	0.020678125
241	0x3c20f96b	0.009825091
242	0xbcd27784	-0.025691755
243	0xba122ad6	-0.0005575841
244	0x3c3e9495	0.011632104
245	0x3c365951	0.011129693
246	0x3bb3b5bc	0.005484311
247	0xbc945709	-0.018107908
248	0x3cb7a3ed	0.022417033
249	0x3c297c0c	0.0103445165
250	0xbc1c30b1	-0.009533093
251	0x3cc6b36d	0.024255479
252	0x3d65452b	0.055974167
253	0x3d36d357	0.044635143
254	0x3ca8da62	0.020611946
255	0xbbce8b73	-0.0063032447

conv3.bias f4 [3]
0	0x3c0c4647	0.008561677
1	0x3d203686	0.039114498
2	0x3d05aed6	0.03263744
