CNN_SR/srcnn_model.pth (torch, 83056 bytes, 6 tensors)

conv1.weight f4 [64, 3, 9, 9]
0.05349204 -0.04494121 -0.027242742 -0.06654392 -0.010529718 0.004393144 0.039922148 0.017908249
0.004465902 -0.056786202 -0.014714861 0.020825509 -0.012267894 -0.052843858 0.024702774 0.05241945
0.032159206 0.01388999 0.024501596 0.035472836 -0.03881995 0.040754277 0.05191433 -0.019623632
-0.013721122 0.018317828 0.029765546 -0.04474945 0.053215437 0.04529812 0.035758063 -0.048870478
-0.06883936 -0.07292354 -0.026385589 0.041413322 -0.058936577 0.04217677 -0.057617392 0.004925041
0.020615196 0.010274714 -0.031928062 0.047165807 -0.049436394 0.013047092 0.01583753 -0.026523877
-0.035019603 -0.040420916 0.049287517 -0.006057622 -0.014179259 0.034473613 0.03195572 -0.01609174
-0.025665922 -0.0038946625 -0.0041934163 0.0044000777 -0.017617203 -0.020593453 -0.039418343 -0.047880046
-0.069893874 -0.07256254 -0.039182298 0.041118097 -0.0069221905 0.029224558 -0.0012824412 -0.022513902
0.008948322 -0.047151756 -0.011459402 -0.009896196 0.03750498 0.048062447 -0.003776177 -0.0012148491
-0.04913814 -0.002343938 0.040132385 0.03956657 -0.060250208 -0.030535977 -0.06255009 0.031115936
0.005099394 -0.023230143 -0.0249778 -0.032082427 0.00059609674 0.03373584 -0.014254309 0.05202783
-0.0031982192 0.027298357 0.047740053 -0.062153146 -0.039021958 0.0396735 -0.04970071 0.023234593
-0.065768614 0.044800807 -0.024953453 -0.044323422 -0.012333236 0.043045223 0.028492343 0.002754498
-0.018891986 -0.057876237 -0.05547867 -0.04897239 -0.041665122 -0.03926904 -0.001923791 -0.0020820221
-0.04781218 -0.009155926 -0.005274242 -0.012517455 0.01782013 -0.031460185 0.023084233 -0.010479582
0.045941837 0.04481784 -0.048467055 -0.009320925 0.017396217 0.033758417 -0.036040567 -0.03974139
0.04874619 -0.063286655 -0.034591097 0.028507177 -0.063139424 0.052795526 -0.017072977 0.034306817
0.038826186 0.017730946 -0.066613264 0.036163066 -0.006540291 0.044711657 -0.027682737 -0.018896677
-0.06918309 -0.06704029 0.017267408 -0.01877623 -0.0562413 0.0031106703 -0.0058824765 -0.011409643
-0.03719262 -0.057185113 0.026254835 -0.06438179 -0.06931184 -0.03148196 0.005016861 0.040096
-0.051442582 -0.00552093 0.051545057 -0.060077257 -0.040021427 -0.054533035 -0.040146437 -0.028955266
0.047698643 -0.025142137 0.0003147496 0.03255783 -0.05344842 0.017834894 0.03956915 0.047003407
-0.0419265 -0.010337935 0.042605527 -0.03645828 -0.055227764 -0.044915006 -0.01792566 0.051125836
-0.054231983 0.0092206905 -0.0656106 -0.03383416 0.042486545 0.0067940853 -0.03888816 -0.040630423
0.022501668 -0.003121629 0.023204498 -0.029813789 -0.056570802 -0.0597577 0.028689407 -0.029397624
-0.05511804 -0.026732443 0.042925294 -0.009548365 -0.045643516 0.018224554 0.036386486 -0.052090965
-0.04745591 0.0345084 -0.053329345 0.03807364 0.035488624 0.04115634 0.01501966 0.023690805
0.04126902 -0.021231418 -0.026114084 -0.050220516 -0.037437268 -0.045658775 0.044669077 -0.03945967
0.03819351 0.03345003 0.030586647 0.04617235 -0.046375662 -0.047850206 -0.050442815 -0.032126624
-0.035838682 -0.045810245 0.013860092 0.013794011 -0.06535483 -0.016467003 -0.0071659 0.0544296
-0.028311543 -0.037064567 -0.040989026 -0.011483228 -0.005942079 -0.056875795 0.027237298 0.042305868
00000000: 781a 5b3d 4614 38bd 2c2c dfbc 2e48 88bd
00000010: d784 2cbc 5df4 8f3b 6885 233d 52b4 923c
00000020: b456 923b a698 68bd 9a16 71bc 429a aa3c
00000030: 47ff 48bc cd72 58bd 795d ca3c c7b5 563d
00000040: 5fb9 033d d792 633c 92b7 c83c f74b 113d
00000050: ab01 1fbd f5ed 263d 1fa4 543d bdc1 a0bc
00000060: 8fce 60bc 450f 963c e0d6 f33c 334b 37bd
00000070: 6ef8 593d 858a 393d 0c77 123d 692c 48bd
00000080: a6fb 8cbd f058 95bd 9726 d8bc 04a1 293d
00000090: 7b67 71bd 8cc1 2c3d 3700 6cbd 3d62 a13b
000000a0: 33e1 a83c 4657 283c 00c7 02bd ef30 413d
000000b0: d17d 4abd 78c3 553c b5bd 813c 9a48 d9bc
000000c0: b770 0fbd 6790 25bd b5e1 493d 047f c6bb
000000d0: 1f50 68bc 3434 0d3d 00e4 023d d3d2 83bc
000000e0: 5741 d2bc 983d 7fbb ed68 89bb 872e 903b
000000f0: f451 90bc 9ab3 a8bc 2175 21bd de1d 44bd
00000100: 8524 8fbd ab9b 94bd 9e7d 20bd 736b 283d
00000110: 8bd3 e2bb 5768 ef3c 9617 a8ba 136f b8bc
00000120: fc9b 123c 3322 41bd 37c0 3bbc a823 22bc
00000130: d29e 193d 21dd 443d bd79 77bb 923b 9fba
00000140: 1345 49bd c19c 19bb db61 243d 8e10 223d
00000150: ecc8 76bd 9626 fabc 431a 80bd d9e6 fe3c
00000160: d118 a73b 244d bebc 3e9e ccbc dd68 03bd
00000170: 6043 1c3a 982e 0a3d e88a 69bc 221b 553d
00000180: 3799 51bb cea0 df3c 138b 433d 4c94 7ebd
00000190: 7dd5 1fbd ae80 223d f992 4bbd 7956 be3c
000001a0: b2b1 86bd 0d81 373d 2f6b ccbc 7a8c 35bd
000001b0: 5711 4abc 3050 303d c668 e93c cf84 343b
000001c0: 5ec3 9abc a20f 6dbd 9a3d 63bd 4697 48bd
000001d0: 0ca9 2abd 93d8 20bd b727 fcba 8972 08bb
000001e0: b4d6 43bd bd02 16bc 8cd3 acbb 0316 4dbc
000001f0: 85fb 913c 65dc 00bd 251b bd3c 8db2 2bbc
00000200: 822d 3c3d e992 373d 6485 46bd cbb6 18bc
00000210: 8382 8e3c 4446 0a3d 469f 13bd dec7 22bd
00000220: 16aa 473d 6f9c 81bd 65af 0dbd e287 e93c
00000230: 3e4f 81bd 1f40 583d a1dc 8bbc 4e85 0c3d
00000240: 3508 1f3d 7d40 913c 896c 88bd b91f 143d
00000250: f04f d6bb 9223 373d e8c6 e2bc 34cd 9abc
00000260: ddaf 8dbd 6b4c 89bd 6174 8d3c 9cd0 99bc
00000270: 475d 66bd 63dc 4b3b cac1 c0bb 83ef 3abc
00000280: 4a57 18bd f03a 6abd 6114 d73c 9ada 83bd
00000290: 5ef3 8dbd 3af3 00bd 7b64 a43b b43b 243d
000002a0: 75b5 52bd ebe8 b4bb e920 533d 9213 76bd
000002b0: 82ed 23bd 085e 5fbd 9770 24bd 9833 edbc
000002c0: a75f 433d e2f6 cdbc fa04 a539 5c5b 053d
000002d0: bbec 5abd 7c1a 923c 4313 223d a586 403d
000002e0: 1fbb 2bbd 7160 29bc 2283 2e3d 4755 15bd
000002f0: 8236 62bd ccf8 37bd d5d8 92bc 5369 513d
00000300: 5b22 5ebd 6112 173c da5e 86bd b095 0abd
00000310: 5f06 2e3d eba0 de3b 3149 1fbd 166c 26bd
00000320: 6b55 b83c 3e94 4cbb 5c17 be3c 0c3c f4bc
00000330: c9b6 67bd 7dc4 74bd 0c06 eb3c 49d3 f0bc
00000340: 74c3 61bd fffd dabc 6fd2 2f3d bf70 1cbc
00000350: b2f4 3abd a94b 953c ff09 153d 565d 55bd
00000360: 2161 42bd ae58 0d3d df6f 5abd 1bf3 1b3d
00000370: 855c 113d 8d93 283d 0515 763c 3813 c23c
00000380: b409 293d 83ed adbc 34ed d5bc 07b4 4dbd
00000390: d257 19bd b204 3bbd ecf6 363d 77a0 21bd
000003a0: cc70 1c3d e602 093d d990 fa3c 381f 3d3d
000003b0: 68f4 3dbd 94fe 43bd 209d 4ebd 3597 03bd
000003c0: 95cb 12bd 86a3 3bbd 7015 633c 4700 623c
000003d0: c1d8 85bd cfe5 86bc edcf eabb 92f1 5e3d
000003e0: 9ced e7bc 04d1 17bd 1ce4 27bd 2624 3cbc
000003f0: c5b5 c2bb 98f6 68bd c120 df3c eb48 2d3d

conv1.bias f4 [64]
-0.013597667 -0.009090347 0.049375698 0.017375922 -0.0065809744 -0.1316742 0.02070116 -0.16391362
0.008743221 0.074504115 0.015655646 0.15908022 0.06183845 -0.014048556 -0.048159186 0.052828442
0.052799884 0.00078971253 0.0013595072 0.05686289 -0.1029815 0.010392497 -0.06786762 -0.077146195
0.0076559703 0.03710506 -0.070166096 0.028993808 -0.070613734 0.22882298 0.17447826 -0.11851777
-0.05226505 0.004951677 0.019194748 0.03993659 0.009439602 0.009502845 0.062214486 -0.02015225
-0.033666093 0.12717374 0.04162288 -0.043110926 0.06252344 0.0071566724 0.019691931 -0.0030385354
0.040628947 0.059532125 0.01819522 -0.0061060744 0.05724756 0.015837383 0.15016466 -0.04970435
0.114857085 0.06963117 -0.03652763 0.058252662 0.04863353 0.057886347 -0.014767612 -0.005277
00000000: c0c8 5ebc aeef 14bc 2c3e 4a3d f357 8e3c
00000010: 37a5 d7bb 9ad5 06be 7b95 a93c f9d8 27be
00000020: ba3f 0f3c 9d95 983d 4540 803c ede5 223e
00000030: 514a 7d3d ea2b 66bc 9142 45bd a362 583d
00000040: b144 583d b604 4f3a 7e31 b23a 10e9 683d
00000050: f7e7 d2bd 4b45 2a3c 2efe 8abd d3fe 9dbd
00000060: efde fa3b 7afb 173d 3eb3 8fbd 6c84 ed3c
00000070: ef9d 90bd 9250 6a3e 6eaa 323e 72b9 f2bd
00000080: e113 56bd ad41 a23b 4e3e 9d3c 8d94 233d
00000090: 8fa8 1a3c d2b1 1b3c 9ed4 7e3d 5516 a5bc
000000a0: 75e5 09bd d539 023e c17c 2a3d 1595 30bd
000000b0: 4a0c 803d 8582 ea3b f950 a13c 2a22 47bb
000000c0: 8a6a 263d f5d7 733d 240e 953c 7715 c8bb
000000d0: 6b7c 6a3d 66bd 813c c4c4 193e ca96 4bbd
000000e0: 313a eb3d c99a 8e3d ff9d 15bd 589a 6e3d
000000f0: f433 473d 3c1a 6d3d dbf3 71bc afea acbb

conv2.weight f4 [32, 64, 1, 1]
-0.11721143 -0.0377863 0.043315638 -0.17219006 -0.012548273 0.06824409 -0.031091908 -0.018430155
-0.07064616 0.13933493 0.15210912 -0.12456186 -0.030800689 0.10328899 0.10321884 -0.029095529
-0.09774069 0.0026873017 0.07649033 0.09722419 0.000751011 0.044894367 -0.029646343 -0.08427155
0.03768938 0.08761456 0.04858315 -0.044610944 0.12165514 -0.067291506 0.019628558 0.06265684
-0.044099893 0.07931021 0.060628023 -0.08775426 0.15549971 0.11678882 -0.13961399 0.09994194
-0.03466907 0.072909355 0.13743386 0.05417204 -0.0124355415 -0.03778446 0.11136325 -0.07939814
0.043956872 0.0700432 -0.05121948 0.062048383 0.027336922 0.14277716 -0.04781415 0.08131279
-0.01610627 -0.012238077 0.060646385 0.0016567886 -0.106635176 0.0026894081 0.09176808 -0.10072598
0.09493892 0.1396535 -0.1276302 0.030999577 0.0018449147 -0.019120468 -0.11750986 0.018794155
-0.038795378 0.02220446 -0.0032753216 0.038958333 0.021157466 -0.112843074 0.081754 -0.08639296
-0.13219401 -0.07114966 0.06417002 -0.061000675 0.06341223 -0.09192131 -0.11180925 0.012103131
-0.13626274 -0.1333775 -0.0672174 0.0062997146 0.09598072 0.08537784 -0.006250767 -0.09184128
-0.06606434 0.01917155 -0.029284693 -0.080480464 -0.16362225 -0.100773685 -0.12045907 0.033012144
-0.07753275 0.104311004 -0.041607197 -0.009309249 -0.13762206 -0.03925512 -0.06343894 -0.014650985
-0.0052222926 -0.1277853 -0.12020597 0.01330591 0.051611695 -0.043006953 -0.026333112 0.023195669
-0.026807562 -0.071010314 -0.08194112 -0.110217735 -0.13626486 -0.06434401 -0.09056537 -0.1311903
0.0860767 0.024504984 0.08672373 0.095389955 -0.052121744 0.048941012 0.039712198 0.091767006
-0.113157906 0.03437047 -0.109010994 -0.020696236 0.118366055 -0.060734876 0.09501787 -0.12478409
0.022414967 -0.07010508 0.10619122 -0.03565332 0.102882944 0.06915685 -0.13143735 0.010576916
-0.05505226 -0.051942993 0.036835954 -0.077489145 -0.0599874 0.0065050223 -0.03241226 0.09698157
-0.03018145 0.06183953 -0.009733253 0.057391815 -0.01358671 0.01392061 0.11022534 -0.023447556
-0.06377232 -0.11095769 -0.099490225 0.051693026 -0.11200407 -0.11549964 -0.04014743 -0.013171662
0.009601229 -0.11241086 -0.1203988 -0.057994023 -0.06541933 0.015308197 -0.027632032 -0.022386651
-0.12181625 -0.11852984 -0.053764127 0.050470505 0.09325058 -0.096636325 -0.0016337881 -0.12960391
0.039562088 -0.10254233 -0.16042632 0.11797202 0.034723464 0.11732344 0.069034696 0.14533857
-0.14453925 -0.08573877 0.0563134 -0.045740496 -0.13467036 -0.01994461 -0.07242458 -0.1775151
-0.10994852 0.056749754 -0.057747386 -0.09259193 -0.06286558 -0.15297075 0.069813184 0.13281031
-0.0679784 0.16833246 0.10799232 -0.11197703 -0.0500554 0.08701166 -0.10352545 -0.22598389
-0.044206996 -0.010418055 0.10439984 0.19601381 -0.0053961105 -0.07858706 0.13544828 0.0065457546
0.05148481 0.22875783 0.057723135 -0.018319737 -0.08552221 0.053808834 0.0055903927 -0.07447553
-0.07098713 -0.22203453 -0.047413364 0.19224562 -0.0031218906 0.14390627 0.0051627844 -0.09446106
0.1929351 0.006545635 0.07912109 0.057295654 -0.03858142 -0.4109308 0.09699379 -0.36048663
00000000: 8c0c f0bd cfc5 1abd bd6b 313d 9752 30be
00000010: 4697 4dbc 8fc3 8b3d 75b4 febc d6fa 96bc
00000020: efae 90bd d1ad 0e3e 7ec2 1b3e 4a1a ffbd
00000030: ba51 fcbc 2e89 d33d 6664 d33d bf59 eebc
00000040: 452c c8bd 711d 303b f6a6 9c3d 7a1d c73d
00000050: 7fdf 443a 28e3 373d e3dc f2bc 9096 acbd
00000060: 2e60 1a3d 436f b33d 20ff 463d f7b9 36bd
00000070: 5426 f93d 21d0 89bd 12cc a03c 3b52 803d
00000080: 17a2 34bd 646d a23d 1755 783d 81b8 b3bd
00000090: 513b 1f3e fa2e ef3d f8f6 0ebe 5cae cc3d
000000a0: 2801 0ebd 8051 953d 76bb 0c3e 80e3 5d3d
000000b0: 71be 4bbc e1c3 1abd 6a12 e43d 7e9b a2bd
000000c0: 1f0c 343d cf72 8f3d 84cb 51bd 7226 7e3d
000000d0: aef1 df3c 2d34 123e c5d8 43bd 5287 a63d
000000e0: 4cf1 83bc 3782 48bc 5868 783d 9a28 d93a
000000f0: 8b63 dabd c840 303b e7f0 bb3d 6c49 cebd
00000100: 566f c23d 5401 0f3e 7eb1 02be d3f2 fd3c
00000110: 11d1 f13a 87a2 9cbc 02a9 f0bd 33f6 993c
00000120: e7e7 1ebd 21e6 b53c c7a6 56bb c692 1f3d
00000130: 6c52 ad3c 451a e7bd a46e a73d cbee b0bd
00000140: de5d 07be eab6 91bd 926b 833d d8db 79bd
00000150: 45de 813d 3d41 bcbd 40fc e4bd 364c 463c
00000160: 7688 0bbe 1d94 08be 47a9 89bd d66d ce3b
00000170: 8a91 c43d 94da ae3d 3cd3 ccbb 4817 bcbd
00000180: be4c 87bd a80d 9d3c 74e6 efbc f1d2 a4bd
00000190: 978c 27be 6f62 cebd 3fb3 f6bd be37 073d
000001a0: 7ec9 9ebd 02a1 d53d 4f6c 2abd d285 18bc
000001b0: ccec 0cbe fac9 20bd 46ec 81bd af0a 70bc
000001c0: c41f abbb 26da 02be 8c2e f6bd 0801 5a3c
000001d0: c966 533d 0f28 30bd 8ab8 d7bc d804 be3c
000001e0: 889b dbbc db6d 91bd bfd0 a7bd d6b9 e1bd
000001f0: 0489 0bbe cbc6 83bd 567a b9bd c056 06be
00000200: fb48 b03d adbe c83c 369c b13d cf5b c33d
00000210: 9c7d 55bd 5f76 483d 42a9 223d 57f0 bb3d
00000220: 55bf e7bd 0dc8 0c3d 2841 dfbd 278b a9bc
00000230: e769 f23d 22c5 78bd bb98 c23d cd8e ffbd
00000240: 989f b73c 4193 8fbd c87a d93d 3709 12bd
00000250: 4bb4 d23d 1ba2 8d3d 8397 06be cd4a 2d3c
00000260: 7b7e 61bd 2dc2 54bd 4ce1 163d a1b2 9ebd
00000270: 59b5 75bd 1528 d53b b8c2 04bd 469e c63d
00000280: 173f f7bc 724b 7d3d 3978 1fbc ae13 6b3d
00000290: cb9a 5ebc 4513 643c d3bd e13d 1715 c0bc
000002a0: 109b 82bd c93d e3bd 88c1 cbbd 11bc 533d
000002b0: 6462 e5bd 138b ecbd a271 24bd f4cd 57bc
000002c0: 794e 1d3c aa37 e6bd a593 f6bd 248b 6dbd
000002d0: 92fa 85bd 3bcf 7a3c 925c e2bc 3664 b7bc
000002e0: cc7a f9bd c6bf f2bd c637 5cbd 29ba 4e3d
000002f0: 29fa be3d 44e9 c5bd d524 d6ba e3b6 04be
00000300: db0b 223d b701 d2bd cc46 24be 509b f13d
00000310: 313a 0e3d 4647 f03d 1062 8d3d a2d3 143e
00000320: 1902 14be cf97 afbd e1a8 663d 635a 3bbd
00000330: 07e7 09be e162 a3bc 5753 94bd 85c6 35be
00000340: b12c e1bd 6e72 683d 8688 6cbd d6a0 bdbd
00000350: abbf 80bd 5da4 1cbe 37fa 8e3d 6dff 073e
00000360: 4238 8bbd 585f 2c3e 142b dd3d 3754 e5bd
00000370: e406 4dbd 2b33 b23d 2705 d4bd 5268 67be
00000380: 6512 35bd 7db0 2abc 95cf d53d d8b7 483e
00000390: dbd1 b0bb 41f2 a0bd f4b2 0a3e c57d d63b
000003a0: bce1 523d 7e3f 6a3e 186f 6c3d 4613 96bc
000003b0: 4526 afbd a766 5c3d 9d2f b73b a086 98bd
000003c0: b361 91bd 055d 63be 8434 42bd 09dc 443e
000003d0: a298 4cbb 2a5c 133e 932c a93b cd74 c1bd
000003e0: c790 453e c47c d63b 3d0a a23d d9ae 6a3d
000003f0: 8d07 1ebd 8665 d2be aea4 c63d b491 b8be

conv2.bias f4 [32]
-0.028475266 0.007193461 0.0037338529 0.07817769 0.026426537 0.062160224 -0.07037872 -0.08730239
0.0049436553 0.013882967 0.10796731 -0.01621887 0.0629794 0.09685342 0.020441787 0.05166968
-0.0003072245 -0.040420834 -0.0016603725 -0.097193584 0.08775228 0.033320684 0.04077861 0.007335488
-0.0032361972 0.011875737 -0.05169075 0.13156244 0.011954634 0.012424072 0.025143627 -0.12884413
00000000: f644 e9bc 20b7 eb3b a8b3 743b a01b a03d
00000010: 777c d83c b89b 7e3d b822 90bd 98cb b2bd
00000020: 63fe a13b 6275 633c f71d dd3d 70dd 84bc
00000030: 58fb 803d 165b c63d 8975 a73c 96a3 533d
00000040: f912 a1b9 5190 25bd dba0 d9ba 6e0d c7bd
00000050: 78b7 b33d 457b 083d 7907 273d 895e f03b
00000060: 6116 54bb 7492 423c aeb9 53bd 4eb8 063e
00000070: 5fdd 433c 568e 4b3c 02fa cd3c b7ef 03be

conv3.weight f4 [3, 32, 5, 5]
0.010066532 -0.0015869823 0.032800913 -0.05335669 -0.013643406 0.023408571 0.05018562 0.106927976
0.04429759 -0.030435894 0.02628241 0.053588647 0.19674025 0.121166036 0.06477625 -0.019340947
0.007845656 0.117243804 0.074666336 0.0068586785 -0.040725775 -0.011734156 0.039100062 -0.006012037
-0.03787075 -0.0165253 0.051644407 0.041065734 0.02946791 0.039668784 -0.0049365163 0.01435676
0.004934275 0.043922976 -0.01475625 0.0003180343 0.044381488 0.054862384 0.0005588863 -0.023379223
0.0133431135 -0.0030177485 0.0328017 -0.011750977 0.0393016 -0.039861985 0.023334889 -0.005445054
-0.0030203576 -0.013866172 -0.0036738436 0.017986579 -2.2401231e-05 -0.025938498 0.016961815 -0.008676351
0.0036141572 0.00026922443 -0.024274934 -0.026629148 -0.0075388295 0.022963617 0.038599722 0.019801069
0.028529495 -0.014390811 -0.004082978 0.026585346 0.0048388173 -0.0145510845 0.026146326 -0.02718415
0.008259839 0.014734685 0.013005441 0.039080147 -0.023227567 0.013892858 0.05335801 -0.020380175
0.06895543 -0.032481704 -0.04998828 0.013598147 0.007142837 0.1060712 -0.07904246 -0.033066507
0.05508455 -0.04753416 0.032676674 -0.014797947 -0.074720256 -0.036050037 -0.030208016 -0.015475764
0.0013740576 0.03364892 0.049248695 0.04578629 -0.022202361 -0.02015294 -0.029075798 -0.053518254
-0.027710322 -0.023121037 -0.0072372984 0.068969116 -0.00740897 -0.049249236 -0.0074279886 0.013087518
0.14494759 0.043794658 -0.0083313 -0.01863753 0.026605286 0.026925718 0.008793649 -0.030721543
0.027691554 -0.013176374 -0.042225886 0.006259331 -0.0048567248 0.018166764 -0.02190995 0.0024109292
-0.00037169643 0.005101205 -0.025281016 0.016845908 -0.00017229166 0.020854568 0.036436338 -0.007616024
0.040624417 -0.03694918 -0.034276042 0.00060678646 -0.0071504894 -0.0014122964 -0.021079633 0.0025812113
0.03253184 -0.030442066 -0.031179028 0.035317425 0.029175531 0.0060730944 0.016959863 0.030919597
0.022441931 0.02715873 -0.016018257 0.0111639835 -0.023520092 0.0100043 -0.021077022 0.03870627
0.023140198 -0.035789534 -0.052524444 -0.029299403 0.05658365 0.023762427 0.0151189435 -0.014784335
-0.014872769 0.008804841 0.016131613 -0.027782619 0.04268381 0.026899392 0.028728524 -0.014691653
0.025492467 -0.03105124 0.01597601 -0.008952491 0.017550554 -0.030106671 -0.04037773 0.008324825
-0.004267779 0.016517019 0.007817174 0.034865197 0.012691533 0.026279325 0.012486285 -0.003599878
0.009183107 0.022897005 0.0011837279 -0.018169865 -0.03670065 -0.016946461 0.0018458092 0.0053397072
0.019611796 -0.07297396 -0.055261374 -0.009885398 0.0065198787 -0.036033142 0.012586192 0.029208064
0.018424902 -0.017287299 -0.011765342 0.07718887 0.081198476 0.011493848 0.012622758 -0.028876126
-0.0026208346 0.015656525 -0.031168146 -0.008977879 0.0046956595 -0.0046458566 -0.0060501387 0.02271288
-0.022640787 8.0410086e-05 0.021656785 -0.029042337 -0.004103063 0.034330457 -0.00034282164 0.008931039
0.04319414 0.007883266 0.008228554 0.042622864 0.00062968076 0.050566275 0.0028804257 -0.00426773
0.02143743 0.0042743566 -0.026446441 0.0049555376 -0.021341197 0.025158886 -0.02907252 -0.0125400685
0.00048404592 0.029195838 -0.033234973 0.036285408 -0.033843506 0.006660936 -0.0380721 0.012846016
00000000: 18ee 243c 4a02 d0ba 405a 063d 8b8c 5abd
00000010: 9888 5fbc 55c3 bf3c 708f 4d3d 0efd da3d
00000020: 6471 353d b254 f9bc 354e d73c c57f 5b3d
00000030: 4776 493e e625 f83d 69a9 843d e870 9ebc
00000040: 118b 003c 851d f03d aaea 983d c4be e03b
00000050: 12d0 26bd 9e40 40bc 6327 203d 9f00 c5bb
00000060: 5c1e 1bbd 1160 87bc 1689 533d 8b34 283d
00000070: b066 f13c bc7b 223d 80c2 a1bb 9e38 6b3c
00000080: b3af a13b 94e8 333d 33c4 71bc d7bd a639
00000090: 5dc9 353d 61b7 603d 3a82 123a c985 bfbc
000000a0: 139d 5a3c 6bc5 45bb 135b 063d 2b87 40bc
000000b0: b7fa 203d 5246 23bd cf28 bf3c 6c6c b2bb
000000c0: 31f1 45bb f12e 63bc dec4 70bb 9758 933c
000000d0: 47ea bbb7 f97c d4bc 81f3 8a3c 4127 0ebc
000000e0: 7fdb 6c3b b126 8d39 3adc c6bc 5f25 dabc
000000f0: 4908 f7bb 321e bc3c be1a 1e3d da35 a23c
00000100: b0b6 e93c 70c7 6bbc 80ca 85bb 83c9 d93c
00000110: f18e 9e3b ac67 6ebc d230 d63c 4bb1 debc
00000120: 4754 073c c069 713c c614 553c 8112 203d
00000130: bd47 bebc df9e 633c ee8d 5a3d 53f4 a6bc
00000140: 8138 8d3d 890b 05bd 83c0 4cbd c3ca 5e3c
00000150: 760e ea3b db3b d93d 03e1 a1bd bf70 07bd
00000160: 56a0 613d 2eb3 42bd fad7 053d 1773 72bc
00000170: ef06 99bd 34a9 13bd cd76 f7bc 0f8e 7dbc
00000180: b919 b43a 73d3 093d 00b9 493d 688a 3b3d
00000190: bae1 b5bc c717 a5bc 5e30 eebc f535 5bbd
000001a0: c200 e3bc 5468 bdbc dc26 edbb ae3f 8d3d
000001b0: f2c6 f2bb 91b9 49bd 7c66 f3bb 076d 563c
000001c0: 246d 143e 0762 333d 0180 08bc bcad 98bc
000001d0: 54f3 d93c 5393 dc3c 3d13 103c bfab fbbc
000001e0: 66d9 e23c b8e1 57bc 0df5 2cbd 131b cd3b
000001f0: 2925 9fbb 77d2 943c 7f7c b3bc ae00 1e3b
00000200: 40e0 c2b9 0228 a73b 221a cfbc 6e00 8a3c
00000210: 31a9 34b9 33d7 aa3c 453e 153d d78f f9bb
00000220: ca65 263d 0658 17bd 0965 0cbd c010 1f3a
00000230: a74e eabb ce1c b9ba 32af acbc 8a29 293b
00000240: 1b40 053d a461 f9bc 296b ffbc 01a9 103d
00000250: 8601 ef3c cf00 c73b 69ef 8a3c 184b fd3c
00000260: 24d8 b73c fc7b de3c b838 83bc 24e9 363c
00000270: 35ad c0bc 13e9 233c b8a9 acbc 778a 1e3d
00000280: 8390 bd3c 0c98 12bd df23 57bd 4d05 f0bc
00000290: 42c4 673d 6ca9 c23c 72b5 773c ff39 72bc
000002a0: eaac 73bc 2e42 103c 7226 843c 6098 e3bc
000002b0: 38d5 2e3d 1d5c dc3c 1558 eb3c 42b5 70bc
000002c0: 94d5 d03c 2c5f febc 1fe0 823c 78ad 12bc
000002d0: 2ec6 8f3c 44a2 f6bc 1e63 25bd d964 083c
000002e0: bad8 8bbb b34e 873c 9b13 003c cfce 0e3d
000002f0: 26f0 4f3c bd47 d73c 4693 4c3c eeeb 6bbb
00000300: be74 163c 8092 bb3c 5127 9b3a f8d8 94bc
00000310: 6c53 16bd 4ed3 8abc 14ef f13a b6f8 ae3b
00000320: eba8 a03c 5f73 95bd c059 62bd 5df6 21bc
00000330: b5a4 d53b 7d97 13bd 5136 4e3c c045 ef3c
00000340: d2ef 963c 189e 8dbc 6cc3 40bc 3315 9e3d
00000350: 634b a63d b150 3c3c afcf 4e3c a08d ecbc
00000360: 4fc2 2bbb 1d42 803c 5754 ffbc f417 13bc
00000370: 0cde 993b 453c 98bb 3e40 c6bb 5d10 ba3c
00000380: 2c79 b9bc d6a1 a838 9269 b13c 32ea edbc
00000390: fd72 86bb 189e 0c3d bebc b3b9 7e53 123c
000003a0: 57ec 303d d028 013c 0fd1 063c 5095 2e3d
000003b0: 2911 253a 951e 4f3d 86c5 3c3b 50d8 8bbb
000003c0: 8d9d af3c e70f 8c3b 35a6 d8bc 1062 a23b
000003d0: bcd3 aebc 021a ce3c 7e29 eebc dc74 4dbc
000003e0: 8bc7 fd39 1c2c ef3c 6521 08bd 02a0 143d
000003f0: 7d9f 0abd fb43 da3b 7ef1 1bbd 1978 523c

conv3.bias f4 [3]
0.023725998 0.0089742625 -0.0016103946
00000000: 065d c23c c908 133c e013 d3ba
