CNN_SR/srcnn_model.pth (torch, 83056 bytes, 6 tensors)

conv1.weight f4 [64, 3, 9, 9]
0	0x3c863a6d	0.016385281
1	0xbd243a80	-0.040094852
2	0x3d5b5427	0.05354705
3	0x3c9d7be3	0.019224113
4	0xbd0816c4	-0.033224836
5	0x3d2144cf	0.03937226
6	0xbe136754	-0.14394885
7	0x3d430e1e	0.047620885
8	0x3d9576e0	0.07298064
9	0x3c2d2dc2	0.010569992
10	0xbd6ce5c2	-0.0578363
11	0xbd573826	-0.05254378
12	0xbcb4bba6	-0.022062134
13	0x3dd099e0	0.10185599
14	0x3d0360be	0.032074682
15	0xbde52210	-0.111881375
16	0xbd143d2f	-0.03619116
17	0xbce0c445	-0.027437339
18	0x3cf48a21	0.029851021
19	0xbb39cd8b	-0.0028351273
20	0xbbe66908	-0.0070315637
21	0xbaf691ee	-0.0018811801
22	0x3d698721	0.057013635
23	0x3c0163e7	0.007897354
24	0x3d1a994f	0.037743863
25	0xbd354a9f	-0.044260617
26	0xbc25b2c3	-0.010113421
27	0xbd57f646	-0.0527251
28	0x3e0bba10	0.13645196
29	0x3d164628	0.036688
30	0xbd5da96f	-0.054116663
31	0xbd33baf6	-0.04387947
32	0xbc679c9d	-0.014136461
33	0x3e2d6aa2	0.16935208
34	0x3ca68d00	0.020330906
35	0xbdcdb8b7	-0.10044997
36	0xbd667158	-0.056260437
37	0x3db41435	0.08792917
38	0x3dcb64b3	0.09931316
39	0xbe05ee07	-0.13079081
40	0xbe1fb482	-0.15596202
41	0x3c3cbe32	0.0115199555
42	0x3e6d2235	0.2315758
43	0xbd03075c	-0.03198944
44	0xbb974749	-0.004616652
45	0xbbd31ea6	-0.0064428626
46	0x3d4bc1bd	0.04974531
47	0x3da4a18a	0.08038624
48	0xbd1f1272	-0.03883595
49	0xbcae6e1c	-0.021292739
50	0xbc179af0	-0.009253249
51	0x3d0cfa63	0.034418475
52	0x3bac527d	0.005258857
53	0xbd14dee5	-0.03634538
54	0xbab3cceb	-0.0013717687
55	0xbd9a72ed	-0.075414516
56	0xbc04afeb	-0.008098583
57	0xbc0b4829	-0.008501091
58	0x3ddabcd1	0.10680545
59	0xbc6e7bdb	-0.014555897
60	0xbdab4410	-0.08362591
61	0xbd4fcfa2	-0.050735123
62	0x3b2173ef	0.0024635752
63	0x3b922b7e	0.004460751
64	0xbdbf6884	-0.09346107
65	0xbd1e8b53	-0.03870709
66	0x3cbcfb96	0.023069184
67	0x3d7a3fd4	0.061096027
68	0x3d16185c	0.036644325
69	0xbd69c1c7	-0.057069566
70	0xbc02e0b5	-0.007988145
71	0x3cdeed94	0.027212895
72	0x3cfae767	0.03062792
73	0xbc0c456b	-0.008561472
74	0x3dadd136	0.084871694
75	0xbd1cd732	-0.038291164
76	0xbb46afdb	-0.003031722
77	0xbc62a0c4	-0.013832275
78	0xbda293da	-0.07938357
79	0x3d157ba7	0.036494877
80	0x3dbf6cc0	0.09346914
81	0x3d4f3fa7	0.050597813
82	0x3c9ef4db	0.019403866
83	0x3d6315eb	0.055440824
84	0xbd6cc493	-0.057804655
85	0xbdacd898	-0.084397495
86	0x3d13cd46	0.036084436
87	0xbd507dc0	-0.050901175
88	0xbc48f9d4	-0.012266595
89	0x3d81bddc	0.06335041
90	0x3c874a07	0.016514791
91	0xbc21ad72	-0.009868013
92	0xbd95e26c	-0.07318577
93	0xbd36d8b8	-0.044640273
94	0x3d8c932d	0.06864009
95	0x3dae3929	0.08506996
96	0x3c22d412	0.009938257
97	0xbc93d89b	-0.018047621
98	0xbc7f15cf	-0.015569164
99	0x3c8d3c2b	0.017240604
100	0xbc86f34e	-0.016473439
101	0x3c9fe10b	0.019516489
102	0x3c028c31	0.007967995
103	0x3ac5ef40	0.0015101209
104	0x3c11af3c	0.008891877
105	0x3d9280cc	0.07153472
106	0x3d8c1121	0.068392046
107	0x3d09fa82	0.03368617
108	0xbd3fefbc	-0.046859488
109	0x3dc4b60a	0.09605034
110	0x3cdc4491	0.026888164
111	0xbda97e52	-0.08276047
112	0xbdf9a90d	-0.12190447
113	0xbe0cf6d2	-0.1376603
114	0x3d9ccf12	0.07656683
115	0xbc106575	-0.008813252
116	0xbcff1b54	-0.03114096
117	0xbd5f6536	-0.05453988
118	0x3df26f16	0.11837594
119	0x3dc10a20	0.09425759
120	0xbc5c980b	-0.013463984
121	0xbe73159f	-0.23738717
122	0xbe434419	-0.19068946
123	0x3e0f2f21	0.13982822
124	0x3d9c2678	0.07624525
125	0xbd8b07fe	-0.06788634
126	0x3d5d934c	0.05409555
127	0x3bfea4e4	0.0077711213
128	0x3d4f6191	0.050630156
129	0xbc3900ca	-0.011291692
130	0xbcc248d2	-0.023716364
131	0xbceb4c2b	-0.028722843
132	0x3e22ecba	0.15910617
133	0xbd09657b	-0.033544045
134	0xbb8e7dd5	-0.0043484964
135	0xbcc16517	-0.023607774
136	0xbdb26715	-0.087110676
137	0x3d27c359	0.040957782
138	0xbc100b9a	-0.0087918285
139	0x3daa6b79	0.0832128
140	0x3c780d22	0.01513985
141	0x3bb85be5	0.005626189
142	0xba007cae	-0.0004901391
143	0xbd81c427	-0.06336241
144	0x3d23aa66	0.039957426
145	0xbd1e79ba	-0.038690306
146	0x3c96428f	0.018342284
147	0xbd2bdb80	-0.04195738
148	0xbbf46fe4	-0.0074596275
149	0x3d0fa485	0.035069007
150	0x3baac1d6	0.0052110953
151	0x3c653fd8	0.013992272
152	0xbcbe0281	-0.023194553
153	0x3ce37437	0.027765376
154	0xbcce6653	-0.025195276
155	0x3d86bf70	0.065794826
156	0xbc8e93ab	-0.017404398
157	0xbcb70b90	-0.02234438
158	0xbd841a84	-0.0645037
159	0xbd9b255e	-0.075754866
160	0x3c9b70fd	0.018974775
161	0x3d43f1b7	0.04783794
162	0x3d0ad63b	0.033895712
163	0xbd3f25bf	-0.046666857
164	0x3d85a857	0.06526249
165	0xbcf5a4af	-0.029985754
166	0xbbffffd5	-0.00781248
167	0xbcd13cab	-0.025541624
168	0xbc896e4e	-0.01677623
169	0xbcef0c2c	-0.029180609
170	0xbcaa63ae	-0.020799484
171	0xbb3f2b17	-0.002916997
172	0xbd9dc4d6	-0.07703559
173	0xbcc5622d	-0.024094665
174	0x3ca85737	0.0205494
175	0x3da179f0	0.07884586
176	0x3d1a3861	0.037651423
177	0x3e04aa8b	0.12955682
178	0x3b8828a9	0.0041552377
179	0xbbc9973d	-0.006152062
180	0xbabd204e	-0.0014429183
181	0xbdc75e33	-0.09734764
182	0x3c9ec882	0.019382719
183	0x3d9f83d0	0.07788813
184	0x3e083caa	0.13304392
185	0xbe0a7fb4	-0.13525277
186	0xbc85ac2d	-0.016317451
187	0x3d4ef169	0.050523195
188	0xbaa53273	-0.0012603536
189	0xbd8d5ae1	-0.069020994
190	0x3d76e00d	0.060272265
191	0x3de0d7d5	0.10978667
192	0x3d07316b	0.033006113
193	0x3c8d4ab4	0.017247535
194	0xbf01b6c8	-0.5066953
195	0x3d12aaf9	0.035807583
196	0x3c58adc7	0.0132250255
197	0x3cd32dd9	0.025778698
198	0xbd91c152	-0.07116951
199	0x3e0181fb	0.1264724
200	0x3e2f8685	0.17141159
201	0x3dc64b7a	0.09682365
202	0xbe4d377d	-0.20040698
203	0xbefa1ab5	-0.488485
204	0x3d76df90	0.0602718
205	0xbd353dea	-0.0442485
206	0xbd5bebb3	-0.053691577
207	0xbd17bb13	-0.037043642
208	0xbbfe39a4	-0.007758336
209	0x3df8caf1	0.12148083
210	0x3e042e3d	0.12908264
211	0xbdd5780c	-0.10423288
212	0xbeae1f1b	-0.34008107
213	0x3ccca761	0.024982156
214	0x3ce4b2de	0.027917322
215	0xbceb0188	-0.028687254
216	0xbb959d5b	-0.0045658774
217	0xbd92f6d9	-0.07175989
218	0x3d162432	0.036655612
219	0x3db4b084	0.0882273
220	0x3db11dab	0.08648237
221	0xbd048261	-0.0323509
222	0x3d88392c	0.0665153
223	0x3bdffc23	0.006835477
224	0x3d88d7db	0.06681796
225	0x3c93cfbb	0.01804339
226	0xbcf5d01b	-0.030006459
227	0xbd4b6081	-0.04965258
228	0xbd86daab	-0.06584676
229	0x3da411b7	0.08011191
230	0x3d514b6a	0.05109731
231	0x3d43a2e4	0.047762766
232	0x3be2c9ea	0.0069210427
233	0xbd2517e0	-0.040305972
234	0x3d8e2da1	0.06942297
235	0x3bb1212d	0.005405566
236	0xbc72c299	-0.0148169035
237	0xbc319e32	-0.010840939
238	0x3d32e7b4	0.043678
239	0xbd5f8988	-0.05457452
240	0x3c8a7cf9	0.016905295
241	0xbd70afd2	-0.058761425
242	0xbcd009d0	-0.025395304
243	0xbc0ca097	-0.0085832095
244	0x3c577adf	0.013151853
245	0x3cdfeb85	0.027333984
246	0x3cc80095	0.02441434
247	0xbc7f167a	-0.015569324
248	0x3afe01a5	0.0019379152
249	0x3cef0099	0.02917509
250	0x3c99fd1b	0.018797448
251	0x3d1e9557	0.03871664
252	0xbcee4db4	-0.029089786
253	0x3d45b6da	0.048270084
254	0xbc8b7562	-0.017023746
255	0xbd83fe26	-0.06444959

conv1.bias f4 [64]
0	0x3d0d0232	0.03442592
1	0x3daf8f59	0.08572263
2	0xbc40d186	-0.011768704
3	0x3d8a55a4	0.06754616
4	0x3c59d9b2	0.0132965315
5	0xbd25a607	-0.04044154
6	0xbbed2edd	-0.0072382526
7	0x3d676c7c	0.056499943
8	0xbd186e72	-0.037214704
9	0xbd423894	-0.04741724
10	0x3e00201f	0.12512253
11	0x3d905db9	0.07049126
12	0x3e1525c8	0.14565194
13	0x3d7455bc	0.059652075
14	0x3da8aa9d	0.08235667
15	0xbcb36c4a	-0.021902222
16	0x3d30574f	0.043052014
17	0x3d451322	0.04811395
18	0x3ca6ece5	0.020376632
19	0xbdc6d896	-0.09709279
20	0x3d89c4f4	0.06727019
21	0xbd0454bf	-0.032307383
22	0x3d16de2d	0.036832977
23	0xbd46550b	-0.048420947
24	0x3d9700af	0.07373177
25	0x3b5ef1f9	0.0034018739
26	0x3d98d0cd	0.074617006
27	0xbcd941ad	-0.026520574
28	0x3e485318	0.19562948
29	0xbc91af70	-0.01778385
30	0x3d9c4bad	0.076316215
31	0x3dd59141	0.104280956
32	0x3c54a77b	0.012979384
33	0x3d053054	0.032516792
34	0xbc6a17b3	-0.014287877
35	0x3c9e8393	0.019349849
36	0x3dd06c48	0.10176903
37	0xbc15c2c8	-0.009140678
38	0xbd0f6941	-0.035012487
39	0x3d0bcb14	0.034129217
40	0x3d985d21	0.07439638
41	0x3b4a5269	0.0030871874
42	0x3da5f58f	0.08103477
43	0xbd202542	-0.03909803
44	0x3da346ee	0.07972513
45	0x3eadc73a	0.3394106
46	0x3d1258d9	0.035729263
47	0x3da97cb9	0.08275742
48	0x3d353dd2	0.04424841
49	0xbc511cfa	-0.012763256
50	0xbcab2ae9	-0.020894485
51	0x3db8bcee	0.090204105
52	0x3c82b661	0.015956106
53	0xbe26ed95	-0.16301568
54	0xbccd9573	-0.025095677
55	0xbd16011d	-0.036622155
56	0x3d9c766c	0.07639775
57	0x3c6c56e7	0.014425016
58	0xbce47b3c	-0.027890794
59	0x3dbdac36	0.09261362
60	0x3d52bb76	0.051448308
61	0x3e383f28	0.17992842
62	0x3ba4837c	0.005020557
63	0xbc18dd2c	-0.009330075

conv2.weight f4 [32, 64, 1, 1]
0	0x3dcf12f3	0.10111036
1	0xbcb0a861	-0.021564664
2	0xbdf1e489	-0.11811168
3	0xbe1ab51a	-0.15108147
4	0x3db6dd16	0.089288875
5	0x3dfc12f0	0.123082995
6	0x3da67415	0.0812761
7	0xbca324a0	-0.019914925
8	0xbc5ca349	-0.013466665
9	0x3d9bfcaa	0.07616551
10	0xbdf890ce	-0.12136994
11	0xbc36a62c	-0.011148017
12	0x3e81c873	0.25348243
13	0x3db91e4f	0.09038984
14	0xbdbc7d6f	-0.09203612
15	0x3d57bfd5	0.05267318
16	0xbded4719	-0.115858264
17	0xbdc98989	-0.09840686
18	0xbdb2b197	-0.08725279
19	0xbdd033ae	-0.10166107
20	0xbde83fa5	-0.11340264
21	0xbd3b82f4	-0.045779184
22	0xbdb8fe75	-0.09032909
23	0xbdcf5b38	-0.101248205
24	0xbda22228	-0.07916671
25	0xbd796e52	-0.060896225
26	0x3d69c411	0.05707175
27	0xbdc1da6c	-0.09465489
28	0x3e5ab30c	0.21357363
29	0xbd520ff5	-0.05128475
30	0x3dd101c5	0.10205416
31	0xbc8e5dce	-0.017378714
32	0x3dc1f015	0.0946962
33	0x3cf44e53	0.029822504
34	0x3d4a3959	0.049371097
35	0xbceb62d1	-0.028733643
36	0x3dd0cdb1	0.101954825
37	0xbda05612	-0.078289166
38	0xbd88d2bc	-0.066808194
39	0x3bb018e8	0.005374063
40	0x3da9e6fd	0.08296011
41	0x3d153cdc	0.036434993
42	0xbc0e9e8a	-0.008704791
43	0x3bc5c4a6	0.006035405
44	0x3e3e93e6	0.18611106
45	0xbe850967	-0.25983736
46	0xbd9e266f	-0.077221744
47	0x3db547f1	0.08851612
48	0xbdb4bf93	-0.088256024
49	0x3bfd510d	0.0077306093
50	0x3dc42345	0.0957704
51	0x3da5edc0	0.08101988
52	0xbd56562a	-0.052328266
53	0xbda2bdde	-0.079463705
54	0x3cb7f8aa	0.02245744
55	0x3c06b03c	0.0082207285
56	0xbb3b2fef	-0.0028562506
57	0x3dcb0084	0.09912208
58	0x3ecdf921	0.40229133
59	0x3c5f2d42	0.01362163
60	0x3da05128	0.07827979
61	0xbd9bf691	-0.07615388
62	0x3e667aed	0.2250783
63	0xbcc7af10	-0.024375468
64	0xbd56e090	-0.052460253
65	0x39469548	0.00018938363
66	0xbd7f6e9f	-0.062361356
67	0x3ded6368	0.11591226
68	0xbd02a027	-0.031891014
69	0xbdd883f8	-0.10572046
70	0x3dbdfb78	0.092764795
71	0x3df0fd77	0.117670946
72	0xbcfb75a7	-0.03069575
73	0xbd19c6ff	-0.037543293
74	0xbcf753eb	-0.030191382
75	0x3d42aa6a	0.0475258
76	0xbdd1a6e1	-0.10236908
77	0x3da973df	0.08274054
78	0x3c43cf52	0.0119512845
79	0xbd9ad988	-0.07561022
80	0x3da7701d	0.08175681
81	0xbd7d853f	-0.06189465
82	0x3cf927d3	0.030414497
83	0x39e7c686	0.00044207665
84	0x3c931ba5	0.017957518
85	0xbdaf1b63	-0.085501455
86	0xbd2fd06d	-0.04292338
87	0xbd8b200c	-0.06793222
88	0xbc931225	-0.017952988
89	0x3d801fec	0.062560886
90	0xbd8eb5f7	-0.06968301
91	0x3bd32138	0.006443169
92	0x3e10d335	0.14143069
93	0xbd2376da	-0.039908268
94	0x3e11c41d	0.14234968
95	0xbc79ecf9	-0.015254253
96	0x3d831008	0.06399542
97	0xbc25ec6a	-0.010127166
98	0xbd1b2b70	-0.037883222
99	0x3cd10d94	0.02551917
100	0x3d8e10c6	0.06936793
101	0xbcdc9988	-0.026928678
102	0x3cc1eb11	0.023671659
103	0x3d140c06	0.03614428
104	0xbcc8702f	-0.024467556
105	0x3dc091af	0.09402787
106	0xbcc68371	-0.024232598
107	0x3db6a7ad	0.089187
108	0xbe82f4e4	-0.25577462
109	0xbe2e417c	-0.17017168
110	0x3ce23b15	0.027616063
111	0xbe033ca4	-0.12816101
112	0xbd8da404	-0.06916049
113	0xbda728ad	-0.08162055
114	0x3dd9e9c8	0.10640293
115	0xbd3431ea	-0.043992914
116	0x3e0bf5e3	0.13668017
117	0x3d881f56	0.06646602
118	0xbdc506b7	-0.096204214
119	0xbca3b076	-0.019981604
120	0x3dd8b30c	0.105810255
121	0xbdeb0775	-0.11476032
122	0x3e137012	0.1439822
123	0x3cf3688f	0.029712943
124	0x3d448fcb	0.047988694
125	0x3e85f4b9	0.2616327
126	0x3e67a686	0.22622117
127	0xbdec289c	-0.11531183
128	0xbd0a6dad	-0.033796
129	0xbde877e9	-0.11350996
130	0xbe02f869	-0.12790073
131	0x3d1c8761	0.038215045
132	0x3ca02760	0.019550025
133	0xbdbc5e74	-0.09197703
134	0x3d56d289	0.052446876
135	0xba23b950	-0.000624557
136	0xbe23ed50	-0.16008496
137	0x3d084465	0.03326835
138	0x3d4d8cb9	0.05018303
139	0xbcf69612	-0.030100856
140	0x3e3f7175	0.18695624
141	0x3dc9678c	0.09834203
142	0xbd1f6f7d	-0.038924683
143	0xbba24b61	-0.0049528335
144	0x3c8bd89e	0.017071065
145	0x3d836b49	0.064169474
146	0x3d24e457	0.040256824
147	0x3dacac77	0.084313326
148	0x3d4f0fd3	0.0505522
149	0xbdacfaa7	-0.08446246
150	0xbdd86d80	-0.105677605
151	0x3de96ca3	0.11397674
152	0xbd863073	-0.0655221
153	0x3d16c312	0.036807127
154	0xbd57d366	-0.05269184
155	0xbda59121	-0.08084322
156	0x3cb53c8e	0.022123601
157	0x3c6a46e5	0.014299129
158	0x3dd2de1e	0.10296272
159	0xbd48e3c6	-0.049045347
160	0x3e4e4d9a	0.2014679
161	0x3d5ec898	0.05439052
162	0x3d4524b4	0.048130706
163	0x3d706dcd	0.058698464
164	0x3d1057d5	0.035240013
165	0xbe0c3496	-0.13691935
166	0x3db9dce7	0.09075337
167	0x3d8a1dd8	0.067439735
168	0xbc526476	-0.012841335
169	0x3d916523	0.070993684
170	0xbcd9a321	-0.026567044
171	0xbdb78aa0	-0.089619875
172	0x3dfe5e1d	0.124202944
173	0xbd47cf84	-0.048781887
174	0x3e4856d4	0.19564372
175	0xbdb1b1e5	-0.08676509
176	0x3d3bd67d	0.04585885
177	0x3d374873	0.044746827
178	0x3d19a7a5	0.037513394
179	0xbdc9a222	-0.098453775
180	0xbdb57f74	-0.088622004
181	0x3d1be67a	0.038061596
182	0xbddc6e71	-0.107632525
183	0xbd97348f	-0.07383072
184	0x3d6d5385	0.05794098
185	0xbd86555a	-0.06559248
186	0x3d2abb45	0.0416825
187	0x3d8e839d	0.06958697
188	0x3c597677	0.013272873
189	0xbe09a924	-0.13443428
190	0x3e160edf	0.1465411
191	0x3a986056	0.001162539
192	0xbce28d32	-0.027655218
193	0xbddce79b	-0.10786363
194	0x3dfb0965	0.12257651
195	0x3d4b4790	0.049628794
196	0xbea3ee6a	-0.32017833
197	0x3e0ef39f	0.13960122
198	0x3e188d73	0.14897709
199	0xbc9052e5	-0.017617652
200	0xbca85195	-0.020546714
201	0xbd9ee3cd	-0.07758293
202	0xbd69c0f0	-0.057068765
203	0xbde18c10	-0.11013043
204	0x3e660976	0.22464547
205	0x3e299b32	0.16563109
206	0xbc7f9f12	-0.01560189
207	0x3ce2172d	0.027598942
208	0x3d6c3495	0.057667334
209	0xbd96df61	-0.07366825
210	0x3ea04243	0.31300554
211	0xbdeba55c	-0.11506149
212	0xbca28256	-0.01983754
213	0xbdbf430b	-0.09338959
214	0xbe099780	-0.13436699
215	0xbd61b776	-0.055106603
216	0xbe34d0ba	-0.17657748
217	0x3e12e74f	0.1434605
218	0x3d9fc97f	0.07802104
219	0x3d637f89	0.05554155
220	0x3e410b9d	0.18852086
221	0xbdb138af	-0.0865339
222	0x3e44aeeb	0.19207351
223	0xbca6f212	-0.0203791
224	0x3d2fe8a5	0.042946476
225	0xbd4a1c3b	-0.04934333
226	0xbd2cd51c	-0.042195424
227	0x3ddd6d5e	0.10811876
228	0xbd43ef85	-0.047835846
229	0xbdd5090d	-0.10402117
230	0x3c0b43c3	0.008500042
231	0xbd743746	-0.059623025
232	0xbd8b73e8	-0.06809217
233	0x3db68481	0.08911992
234	0x3dc6a95c	0.097002715
235	0x3dd35524	0.10318974
236	0xbe0cc511	-0.1374705
237	0xbd86dee8	-0.06585485
238	0xbe53edcd	-0.20696183
239	0xbe4606ff	-0.19338606
240	0xbcd78bf6	-0.026311856
241	0x3d6e314f	0.058152493
242	0x3e172642	0.14760688
243	0xbe00b37f	-0.12568472
244	0x3e419887	0.18905841
245	0xbdbd258a	-0.09235676
246	0x3cd80d60	0.026373565
247	0x3dc47135	0.09591905
248	0xbdd4ddd4	-0.10393873
249	0x3d572c68	0.052532583
250	0x3d34df2b	0.044158142
251	0xbcc42fe9	-0.023948627
252	0x3e7eb382	0.24873164
253	0xbe90351e	-0.28165525
254	0x3e816273	0.25270423
255	0x3d805997	0.06267088

conv2.bias f4 [32]
0	0x3dab5805	0.08366398
1	0xbdb245e2	-0.08704735
2	0xbcdae0ef	-0.026718585
3	0x3d590efc	0.052992806
4	0xbc6a94a8	-0.014317669
5	0x3c77cd0e	0.015124572
6	0xbdf63842	-0.12022449
7	0x3d28c830	0.04120654
8	0xbcf3ee78	-0.029776797
9	0x3d308e0f	0.043104228
10	0xbd377f25	-0.04479899
11	0x3c61f3bc	0.013791021
12	0x3de0c29d	0.109746195
13	0xbd7c5113	-0.061600756
14	0xbc671717	-0.014104626
15	0xbcd74b19	-0.026280927
16	0x3cf6c4ae	0.030123081
17	0xbd17dcd2	-0.037075825
18	0xbcf582c9	-0.02996959
19	0xbd102a0c	-0.03519635
20	0xbddc1761	-0.10746647
21	0xbdc78f15	-0.097440876
22	0xbdb6262c	-0.088939995
23	0xbd7482f2	-0.05969519
24	0x3d9a72e1	0.07541443
25	0x3c4566a9	0.012048402
26	0x3da8fb9c	0.08251116
27	0xbdbbcd43	-0.0917001
28	0xbc30f49f	-0.01080051
29	0x3d6e3057	0.05815157
30	0xbdb5232e	-0.088446006
31	0xbb374d1a	-0.002796954

conv3.weight f4 [3, 32, 5, 5]
0	0x3d832269	0.064030476
1	0x3d3d9cbb	0.046292048
2	0xbd3c8ad1	-0.046030823
3	0x3c1e5bf9	0.009665483
4	0x3c960512	0.018312965
5	0x3d6ef83e	0.05834221
6	0xbd2bb0f6	-0.04191681
7	0xbd5040ad	-0.05084293
8	0x3c31849a	0.010834837
9	0x3d10b568	0.035329252
10	0xbbb2d02f	-0.0054569463
11	0xbd9d44f4	-0.076791674
12	0xbcbc051b	-0.022951653
13	0x3c9f29fd	0.019429201
14	0xbc09fbb1	-0.008421824
15	0xba352030	-0.00069093984
16	0xbd97ad18	-0.07406062
17	0xbc2d646c	-0.0105830245
18	0xbc251804	-0.010076527
19	0xbc144f98	-0.00905218
20	0x3c99282f	0.018695919
21	0x3c2ea2ec	0.010658961
22	0xbd236374	-0.039889768
23	0xbc808729	-0.01568945
24	0x3d232de1	0.039838675
25	0xbceace5b	-0.028662851
26	0x3bd9b6bd	0.0066440986
27	0xbad8ba81	-0.0016535075
28	0x3d44d429	0.048053894
29	0xbcf8bd1c	-0.030363612
30	0x3d0a0754	0.033698395
31	0x3bca5a0b	0.0061752847
32	0xbb815f4d	-0.0039481283
33	0x3c175363	0.00923619
34	0xbc1aa2f4	-0.009438265
35	0x3da1dc76	0.07903378
36	0x3cecf39f	0.028924761
37	0xbcc7ae44	-0.024375089
38	0xbd0d016e	-0.03442519
39	0x3d69d4b9	0.057087634
40	0x3ca5b2c7	0.02022685
41	0x3c8b7952	0.017025623
42	0xbcbb4808	-0.022861496
43	0xbd8c0f4f	-0.068388574
44	0xbcc636a4	-0.024195977
45	0xbc1527d6	-0.009103736
46	0x3cd73883	0.026272064
47	0x3bb8049e	0.005615785
48	0xbc443b6a	-0.011977056
49	0xbc9bc6ae	-0.019015636
50	0x3cb32f1b	0.021873048
51	0x3c875358	0.016519234
52	0x3c0fcae4	0.0087764
53	0x3c43ddc1	0.011954726
54	0x3ccf4f60	0.025306404
55	0x3b096a58	0.0020967927
56	0xbc237d05	-0.009978537
57	0xba6452b5	-0.0008709834
58	0xbd2ca086	-0.042145275
59	0xbc359558	-0.01108297
60	0x3cfc9e4c	0.0308372
61	0x3cc11c46	0.023573052
62	0xbcc7b2af	-0.024377195
63	0x3a9d0303	0.0011979047
64	0x3bb931e2	0.0056516984
65	0xbc48f6fc	-0.012265917
66	0xbc38f32d	-0.011288446
67	0x3c1be77e	0.009515641
68	0x3c4effc7	0.012634224
69	0xbd0a63bf	-0.03378653
70	0x3d3cd06c	0.046097204
71	0xbc8ac521	-0.016939702
72	0xbc9631f4	-0.018334366
73	0xbd1956fc	-0.03743647
74	0x3b219936	0.0024657971
75	0xbd585f55	-0.05282529
76	0xbd7ae2d9	-0.061251495
77	0xbce97d03	-0.028501993
78	0xbd29de07	-0.041471507
79	0xbd3efc99	-0.046627615
80	0xbd6a99cc	-0.05727558
81	0xbda6d17c	-0.08145425
82	0x3d2208d3	0.039559197
83	0x3d379e08	0.044828445
84	0x3d34925e	0.0440849
85	0x3ba61dc4	0.0050694663
86	0xbb88636f	-0.004162244
87	0x3e0bb1d9	0.13642062
88	0x3e0698fc	0.13144296
89	0x3d759bc4	0.059963003
90	0xbcc00a54	-0.023442425
91	0xbcd169fb	-0.02556323
92	0xbbfb12a6	-0.007662135
93	0xbca9c0a3	-0.02072174
94	0xbc731ef3	-0.014838922
95	0x3c3ea3a0	0.011635691
96	0xbd6e50e4	-0.058182612
97	0xbc990aec	-0.018681966
98	0xbd3983eb	-0.045291822
99	0xbd75c8aa	-0.06000582
100	0xbbd2c423	-0.0064320727
101	0x3cd92f8a	0.026511926
102	0x3cdc9c69	0.02693005
103	0x3d234601	0.039861683
104	0xbc8298a5	-0.015941927
105	0xbbeaa887	-0.0071612033
106	0x3d0272ea	0.03184787
107	0x3d5a0137	0.053223815
108	0x38b766b4	8.74525e-05
109	0x3cdf331f	0.027246056
110	0x3bdcd48d	0.006739205
111	0xbc911341	-0.017709376
112	0x3c000c74	0.007815469
113	0x3c87b9c5	0.016568074
114	0xbc39ce4b	-0.011340688
115	0x3c98a2bf	0.01863229
116	0x3d1e29ba	0.038614012
117	0x3cfea6de	0.031085428
118	0x3b2bb2c3	0.002619908
119	0x3ccceb49	0.025014536
120	0xbd1b6a52	-0.03794319
121	0x3d0b189a	0.03395901
122	0x3c818c69	0.015814023
123	0xbd060b7b	-0.032725792
124	0x3ba26d96	0.0049569113
125	0xbc412d49	-0.011790582
126	0xbb75915d	-0.0037470676
127	0x3a5536c1	0.0008133464
128	0xbd0aa998	-0.033853143
129	0x3cfddceb	0.030989131
130	0x3d29f484	0.041492954
131	0xbd1b4db3	-0.037915897
132	0xbb92c9c0	-0.004479617
133	0x3ce48ec4	0.027900107
134	0xbc0eadcf	-0.008708431
135	0x3cc5f91c	0.024166636
136	0x3bcba44c	0.006214654
137	0x3df1c23b	0.11804625
138	0x3d28274e	0.04105311
139	0xbca86d4f	-0.020559935
140	0xbbfaace9	-0.007650007
141	0xbd53925f	-0.051653262
142	0x3da691c3	0.081332706
143	0x3d343b28	0.04400173
144	0xbd286db2	-0.04112024
145	0xbd331daf	-0.04372948
146	0xbd5d2127	-0.053986695
147	0x3c8cfa9e	0.017209347
148	0xbabe6201	-0.0014525057
149	0x3b0d9e32	0.0021609184
150	0x3ca5887f	0.020206688
151	0xbc91fb37	-0.017819984
152	0x3cf357cd	0.029704953
153	0xbcdb948d	-0.026804233
154	0x3cf35803	0.029705053
155	0x3ceefa18	0.029171988
156	0xbc711622	-0.0147147495
157	0xbc65e509	-0.014031657
158	0xbc049bc5	-0.008093779
159	0xb80e17c9	-3.387759e-05
160	0xbd100fc2	-0.035171278
161	0xbbe354d7	-0.006937604
162	0xbc67e873	-0.014154541
163	0x3c457516	0.012051841
164	0xbd037766	-0.03209629
165	0x3c0ec5bc	0.008714136
166	0x3cd9d9dc	0.026593141
167	0xbc87ed36	-0.016592603
168	0x3c91ac2a	0.01778229
169	0xbc8a4a6e	-0.016881194
170	0x3c058555	0.008149465
171	0xbba2cffe	-0.0049686423
172	0x3c8a8e68	0.016913608
173	0x3b1191cf	0.0022212153
174	0xbc3a0acd	-0.011355114
175	0xbcb1e0c3	-0.02171362
176	0xbd624984	-0.05524589
177	0x3c0b6bfb	0.008509631
178	0xbcd048b6	-0.025425296
179	0xbc524b93	-0.012835401
180	0xb8935f57	-7.027265e-05
181	0xbce83210	-0.028344184
182	0x3d1fbf2c	0.039000675
183	0x3cd7062c	0.02624806
184	0xbca523c5	-0.020158658
185	0xbc8df156	-0.017326992
186	0x3d68c743	0.056830656
187	0x3d709124	0.058732167
188	0xba64a58e	-0.00087221793
189	0xbc691c80	-0.014227986
190	0xbd1909b6	-0.037362777
191	0x3ca921dd	0.02064603
192	0x3d6f48f5	0.058419187
193	0xbca30096	-0.01989774
194	0x3bcde6b9	0.006283608
195	0xbaac8324	-0.0013161642
196	0xbd6479fa	-0.05578039
197	0x3cbf7ea8	0.023375824
198	0x3cae8ebf	0.021308301
199	0xbcaf6545	-0.021410594
200	0xbca98a21	-0.020695748
201	0x3d204f65	0.039138217
202	0xbabaa084	-0.0014238511
203	0x3d020fc0	0.0317533
204	0xbc4f9496	-0.012669703
205	0xbc3d37c7	-0.011548943
206	0xbbf2c1ff	-0.00740838
207	0xbcd3d629	-0.025858955
208	0x3b998ad6	0.00468574
209	0x3a856693	0.0010177664
210	0xb8c82013	-9.5427175e-05
211	0x3bef2b96	0.007298897
212	0xbc5ee912	-0.013605373
213	0xbb250709	-0.0025181195
214	0x3c80dd1d	0.015730435
215	0xbc753be0	-0.014967889
216	0x3d2a5b4d	0.041590977
217	0xbcd2af49	-0.025718348
218	0xbd185635	-0.03719159
219	0xbc8c6532	-0.017138097
220	0xbd340559	-0.043950412
221	0x3cd601cf	0.02612391
222	0x3cb9e113	0.022690332
223	0x3cc2a874	0.023761965
224	0xbc2f6837	-0.010705999
225	0x3c126cc6	0.008937066
226	0xbd26e3b2	-0.04074449
227	0xbd37f279	-0.044908974
228	0xbcd38173	-0.025818562
229	0xbcffc51b	-0.031221917
230	0x3d0961da	0.033540584
231	0xbd706a9a	-0.058695413
232	0xbcee7c33	-0.029111957
233	0x3c867d04	0.016417034
234	0xbd0e25f3	-0.03470416
235	0x3b32ff0e	0.002731267
236	0xbce98696	-0.028506558
237	0x3dae5ccb	0.085137926
238	0x3d8ee11b	0.06976529
239	0xbac0cb8e	-0.0014709102
240	0xbcf010e4	-0.02930493
241	0xbcbf01f8	-0.023316368
242	0x3d3efe8c	0.046629474
243	0x3d2780f5	0.040894467
244	0xbd8804dc	-0.06641552
245	0xba0e2e4a	-0.0005423768
246	0x3b4a9b41	0.0030915292
247	0xbab4085b	-0.00137354
248	0xbca6557b	-0.020304432
249	0xbc4163bb	-0.011803563
250	0x3bc9d6af	0.0061596255
251	0x3d2ca958	0.042153686
252	0x3c37d88e	0.011221064
253	0xb9fe1bd6	-0.00048467395
254	0xbd550425	-0.052005906
255	0xbcc134ea	-0.023584802

conv3.bias f4 [3]
0	0xbb30bb3b	-0.0026967067
1	0x3d23c967	0.039986994
2	0x3c9428d2	0.01808587
